Tests/Editor/TestModels/deterContinuous2vis8vec2action_v2_0.onnx (onnx, 74136 bytes, 9 tensors)

network_body.observation_encoder.processors.0.normalizer.running_mean f4 [8]
0.0006856148 0.0001933271 0.06643259 3.0659606 -0.09256392 0.00049503 -0.25914627 -0.010577221
00000000: d5ba 333a d9b7 4a39 cf0d 883d b338 4440
00000010: 2792 bdbd e7c4 013a d2ae 84be 154c 2dbc

network_body._body_endoder.seq_layers.0.weight f4 [128, 8]
0.20873871 0.15384486 -0.1320225 -0.1986671 0.072642654 0.09717571 0.16072698 0.18568027
0.056160204 -0.01035598 -0.21435653 -1.0559694 0.16107155 -0.04340887 0.026965607 -0.24247989
0.5452654 0.11165956 -0.3977568 -0.5138457 -0.91824096 0.20983168 0.48789656 0.34356403
-0.62002707 -0.61881864 0.05535068 0.1296544 0.38442087 -0.35888302 -0.08964271 0.7100695
-0.0851353 -0.40755877 0.083908565 -0.2194259 0.63263196 -0.25871834 -0.039639045 -0.26386905
0.1826077 0.079105064 0.08658631 0.075202145 0.18119615 0.12710603 -0.5835442 0.21805197
-0.0060961293 0.0173221 -0.30271065 0.04481366 -0.054605976 0.5503392 -0.19320959 -0.5915891
0.043584697 0.55425245 0.33052307 0.09100528 -0.1877402 0.57031965 0.2666802 -0.2446549
0.15122037 -0.25728196 0.23053043 0.13151877 0.18676859 -0.54096884 0.17530537 0.13787593
-0.3671189 -0.3212446 -0.14987549 -0.2974983 0.64499444 -0.33007333 -0.49455118 -0.37535802
-0.026840588 0.109901525 0.53719723 0.47297803 -0.25098252 -0.053556636 -0.09416078 -0.39999363
0.36402512 0.34383982 -0.48354965 -0.13050465 -0.24150704 0.1140501 0.6931592 0.33431196
-0.27169886 0.4429684 -0.13939252 0.2640173 0.20172608 -0.42675585 -0.26628956 -0.070064455
-0.772003 -0.14868298 0.58814067 -0.3483121 -0.017093929 -0.14948511 -0.2732999 -0.17216334
-0.26195818 0.20722927 0.20055422 0.012336865 -0.10715978 0.29850048 -0.003591536 0.36125377
0.5358472 -0.06268311 -0.018140843 0.16620669 0.0074250763 0.5738169 0.022926498 0.31362072
-0.7469971 0.20298803 0.15926808 -0.14382365 -0.22128025 0.32609153 -0.13917969 -0.1430458
-0.06414541 -0.2899505 0.44813135 -0.39535403 -0.60445017 0.047346365 0.022510014 0.10411607
0.17895648 -0.11100668 -0.2893013 0.027253594 -0.39911333 -0.21580215 0.49938506 0.17579222
0.15087669 -0.026639154 -0.5016467 0.24230708 -0.32553822 0.54160136 0.3379561 0.1593772
-0.2539531 0.46953437 0.33902335 0.012835796 0.5735177 0.46357477 0.3185612 0.21531327
0.05435447 -0.12496558 0.35698408 0.009935181 0.43933263 -0.30093488 -0.2957075 0.057726003
-0.73350143 0.1562167 -0.07703289 0.3636616 0.40516666 0.37568024 0.2909275 -0.19862576
-0.47206965 -0.049845733 -0.03455691 0.070142224 0.12128672 0.2902614 0.5523115 -0.026726045
0.14733572 -0.38475782 0.06375325 0.7045604 -0.044003233 0.3550528 -0.37247884 0.28604126
0.5740434 0.050529353 -0.07153219 0.22354285 0.3868513 0.34082592 -0.1518241 0.19997388
0.19302931 -0.4265551 0.3380219 0.092070125 0.7208204 0.54604423 -0.020519823 0.17492701
0.40547127 0.28463483 -0.0471397 -0.29092175 -0.41667262 0.37045285 -0.07877207 -0.14778204
-0.105145 -0.5938354 -0.7081607 0.049704503 -0.24721791 0.11109208 0.08668466 0.011535814
0.48388705 0.24149352 -0.22336942 0.014382887 0.041378435 -0.14252275 0.1605353 0.39227083
0.01548473 -0.30074075 0.055510927 0.32254687 0.08767013 -0.23440565 0.36661035 -0.14272408
-0.13195181 0.24915734 -0.057669275 0.5130466 0.50327474 0.5503864 0.080256484 0.10770192
00000000: 9abf 553e 8289 1d3e e830 07be 636f 4bbe
00000010: acc5 943d 0f04 c73d 9d95 243e f822 3e3e
00000020: 3e08 663d 21ac 29bc 4780 5bbe 012a 87bf
00000030: f1ef 243e 80cd 31bd fae6 dc3c a64c 78be
00000040: 8396 0b3f c4ad e43d c7a6 cbbe 648b 03bf
00000050: d711 6bbf 1ede 563e 94cd f93e a0e7 af3e
00000060: 18ba 1ebf e66a 1ebf 65b7 623d 1fc4 043e
00000070: d0d2 c43e 84bf b7be 9996 b7bd 1dc7 353f
00000080: 6b5b aebd 8bab d0be 41d8 ab3d 2fb1 60be
00000090: 2bf4 213f bb76 84be 8d5c 22bd d819 87be
000000a0: 83fd 3a3e d601 a23d 2a54 b13d 9503 9a3d
000000b0: 7c8b 393e 1528 023e 2763 15bf 0449 5f3e
000000c0: 0ac2 c7bb 14e7 8d3c e4fc 9abe 878e 373d
000000d0: 84aa 5fbd 08e3 0c3f bcd8 45be 6272 17bf
000000e0: de85 323d 7de3 0d3f 523a a93e fa60 ba3d
000000f0: f83e 40be 7800 123f 4f8a 883e d086 7abe
00000100: 83d9 1a3e 76ba 83be 2b10 6c3e dbac 063e
00000110: 4440 3f3e ef7c 0abf 4083 333e 592f 0d3e
00000120: 02f7 bbbe 2c7a a4be f678 19be b251 98be
00000130: 5b1e 253f 5fff a8be d035 fdbe ed2e c0be
00000140: cbe0 dbbc 0d14 e13d c285 093f 2d2a f23e
00000150: c880 80be 345e 5bbd 5ed7 c0bd f7cb ccbe
00000160: 8061 ba3e c60b b03e d293 f7be 03a3 05be
00000170: 9f4d 77be 1993 e93d e272 313f f02a ab3e
00000180: 1d1c 8bbe c1cc e23e eabc 0ebe 472d 873e
00000190: 4891 4e3e be7f dabe 1b57 88be f47d 8fbd
000001a0: fda1 45bf 5a40 18be 6390 163f f755 b2be
000001b0: 9108 8cbc a012 19be f7ed 8bbe 964b 30be
000001c0: 621f 86be e933 543e 165e 4d3e 9020 4a3c
000001d0: 9676 dbbd 0ed5 983e fa5f 6bbb 41f6 b83e
000001e0: 482d 093f 0160 80bd 1b9c 94bc 1632 2a3e
000001f0: 0e4e f33b aae5 123f 5ad0 bb3c e592 a03e
00000200: 343b 3fbf 18dc 4f3e 2c17 233e 8246 13be
00000210: 4a97 62be 78f5 a63e 1f85 0ebe 997a 12be
00000220: ab5e 83bd 6474 94be 7971 e53e d86b cabe
00000230: 3fbd 1abf 43ee 413d ec66 b83c ce3a d53d
00000240: 5e40 373e 7857 e3bd 4d1f 94be ee42 df3c
00000250: 9558 ccbe 3dfb 5cbe 66af ff3e e002 343e
00000260: 6b7f 1a3e 5b3a dabc eb6b 00bf 591f 783e
00000270: f2ac a6be 63a6 0a3f 9508 ad3e c733 233e
00000280: 2406 82be cf66 f03e 7894 ad3e 3b4d 523c
00000290: 0ed2 123f ac59 ed3e 741a a33e 157b 5c3e
000002a0: cba2 5e3d f4ed ffbd 9ec6 b63e 2bc7 223c
000002b0: 35f0 e03e 2314 9abe f966 97be 1a72 6c3d
000002c0: c0c6 3bbf 45f7 1f3e 6bc3 9dbd da31 ba3e
000002d0: 0172 cf3e 2959 c03e 73f4 943e 8d64 4bbe
000002e0: 1db3 f1be 0a2b 4cbd 8c8b 0dbd baa6 8f3d
000002f0: 2c65 f83d 249d 943e 4964 0d3f 94f0 dabc
00000300: 2ddf 163e fafe c4be 1091 823d 125e 343f
00000310: bc3c 34bd 7bc9 b53e 8cb5 bebe 0074 923e
00000320: 82f4 123f def7 4e3d 787f 92bd 6be8 643e
00000330: 6011 c63e bc80 ae3e c777 1bbe f4c5 4c3e
00000340: 7aa9 453e 6e65 dabe 3511 ad3e 438f bc3d
00000350: b087 383f 8ec9 0b3f 3019 a8bc 1120 333e
00000360: ee99 cf3e a8bb 913e 8f15 41bd b2f3 94be
00000370: 1d56 d5be ffab bd3e 4053 a1bd 2d54 17be
00000380: 4356 d7bd 9905 18bf 054a 35bf f396 4b3d
00000390: b126 7dbe 3f84 e33d ba87 b13d b600 3d3c
000003a0: 0bc0 f73e 144a 773e f4ba 64be 33a6 6b3c
000003b0: 6f7c 293d 7cf1 11be 5e63 243e b9d7 c83e
000003c0: aab3 7d3c b1fa 99be 6d5f 633d dd24 a53e
000003d0: 668c b33d 0908 70be 5ab4 bb3e 4326 12be
000003e0: 601e 07be 1a23 7f3e 9e36 6cbd 0657 033f
000003f0: 9dd6 003f 20e6 0c3f 835d a43d d392 dc3d

network_body._body_endoder.seq_layers.0.bias f4 [128]
-0.014757866 -0.06780868 -0.062336765 -0.08194472 -0.0491448 -0.021887215 -0.04030534 -0.06571072
-0.04893592 -0.04076323 0.0276973 0.01495162 0.007255122 -0.030330976 0.008905358 0.025481904
-0.032786567 -0.06977342 -0.033793103 0.06474053 -0.034030512 -0.05676208 -0.021392815 -0.011322935
0.020491665 0.0010696074 -0.022238499 -0.04762552 0.017972725 -0.01458909 0.028951462 -0.030904904
-0.06690308 -0.03816225 0.017055511 0.03128242 -0.079514325 -0.029933237 0.0023013577 0.0025456334
-0.07130393 -0.027382836 0.040756144 -0.05448173 -0.018426657 0.021833753 -0.012101446 0.0005481599
0.021237224 -0.04221342 -0.040288545 -0.030531455 0.0037892996 0.009793706 0.0034587304 -0.0050771153
-0.072548054 -0.03384402 0.0073128855 -0.019046346 -0.04457892 -0.10282894 0.015306794 0.047185794
0.024076458 -0.017603813 -0.019311085 -0.014745425 0.016034564 0.008285285 0.004447938 -0.01968209
0.004748619 0.018232299 0.026324984 0.017122645 0.029269569 0.00631917 -0.033715025 -0.033507235
0.016447844 -0.0023906573 -0.03840061 -0.027996264 0.010793323 -0.039058723 -0.039704762 -0.040283564
0.0049594585 -0.007628293 -0.017763 -0.017365074 -0.03237597 0.0648315 -0.021259455 -0.061989248
-0.00508777 0.0009320078 0.012316906 -0.020904066 -0.018426122 0.015254042 0.015328858 -0.041079927
-0.11801663 0.020329574 -0.04986206 -0.03294768 -0.11720502 -0.013512565 -0.06929515 -0.043683976
-0.0015328705 0.0226405 0.06077127 -0.012108609 -0.021366071 0.0014129272 -0.035844278 -0.062102646
0.0035590082 -0.10338985 0.01911064 0.00936594 -0.030122116 -0.020171981 0.00979884 0.0033510493
00000000: faca 71bc 47df 8abd d654 7fbd a2d2 a7bd
00000010: 0f4c 49bd d14c b3bc 3617 25bd 5893 86bd
00000020: 0871 48bd 58f7 26bd 73e5 e23c a4f7 743c
00000030: 60bc ed3b ab78 f8bc c7e7 113c 6dbf d03c
00000040: 354b 06bd 5ee5 8ebd a36a 0abd af96 843d
00000050: 9463 0bbd 5b7f 68bd fc3f afbc d583 39bc
00000060: 23de a73c 1232 8c3a 832d b6bc fa12 43bd
00000070: 893b 933c 1407 6fbc 9e2b ed3c 482c fdbc
00000080: 7b04 89bd 0550 1cbd 00b8 8b3c ff21 003d
00000090: 68d8 a2bd 8c36 f5bc 60d2 163b a4d4 263b
000000a0: cb07 92bd f851 e0bc eaef 263d 3c28 5fbd
000000b0: 80f3 96bc b3dc b23c 2545 46bc 63b2 0f3a
000000c0: b0f9 ad3c fbe7 2cbd 9a05 25bd 1a1d fabc
000000d0: e655 783b c875 203c deab 623b ee5d a6bb
000000e0: 1394 94bd 07a0 0abd eea0 ef3b 1507 9cbc
000000f0: 6398 36bd fb97 d2bd 59c9 7a3c e445 413d
00000100: fe3b c53c df35 90bc 4832 9ebc cc96 71bc
00000110: eb5a 833c 01bf 073c 02c0 913b 563c a1bc
00000120: 4e9a 9b3b e75b 953c 7ea7 d73c ca44 8c3c
00000130: bcc6 ef3c 0a11 cf3b c418 0abd e23e 09bd
00000140: a1bd 863c 93ac 1cbb f549 1dbd 6c58 e5bc
00000150: 7ad6 303c 0afc 1fbd 76a1 22bd 6100 25bd
00000160: f482 a23b c2f6 f9bb b683 91bc 3341 8ebc
00000170: aa9c 04bd 61c6 843d 4f28 aebc 70e8 7dbd
00000180: 4fb7 a6bb fc51 743a d9cc 493c 013f abbc
00000190: 61f2 96bc 17ec 793c e425 7b3c 6d43 28bd
000001a0: b4b2 f1bd 358a a63c 293c 4cbd 26f4 06bd
000001b0: 2f09 f0bd ce63 5dbc 9eea 8dbd f8ed 32bd
000001c0: 99ea c8ba 9278 b93c 4ceb 783d 3063 46bc
000001d0: e607 afbc f831 b93a 73d1 12bd 585f 7ebd
000001e0: 403e 693b 0fbe d3bd eb8d 9c3c 9973 193c
000001f0: a8c2 f6bc b63f a5bc 508b 203c 479d 5b3b

network_body._body_endoder.seq_layers.2.weight f4 [128, 128]
-0.080224164 0.067875534 -0.07945501 -0.050226588 -0.035755973 -0.082021564 0.058337316 0.14490664
-0.17278321 0.018469457 0.09692349 -0.0924211 0.07881968 0.028003087 -0.20798159 -0.08222419
-0.12923384 0.015823534 0.01137947 0.044836298 -0.14500158 0.11999718 0.027529903 -0.051714968
-0.093580365 -0.003415075 0.04089269 0.04620757 0.013122902 -0.13622965 0.08849256 -0.0062529366
0.017918449 0.18414979 -0.10681618 -0.14371905 0.08137457 -0.25518394 -0.08133554 -0.05072187
-0.10513345 -0.08134993 -0.04196255 0.040823895 -0.18658812 0.07684047 -0.047779623 -0.085271254
-0.124135725 0.025298197 -0.21588978 0.04576556 0.12588072 -0.02594034 -0.0053906557 0.14144106
-0.12391536 0.08977057 -0.013412962 0.018573785 -0.0466565 -0.14381799 -0.047757275 -0.06848628
-0.07358432 -0.014537002 -0.12350629 -0.13107339 0.16444951 -0.03177827 -0.15220203 -0.0010401772
-0.033827744 -0.09860445 0.008882775 0.14886889 -0.09057207 -0.037992522 0.15981871 -0.20713963
-0.08992612 -0.0077133738 -0.020641452 -0.12230523 0.066418625 -0.21575926 0.026852287 -0.09839414
-0.03996742 -0.084045626 -0.07069094 0.037318688 0.04163464 0.029237535 0.016584087 -0.03173451
0.057786774 0.04150531 -0.048150137 0.04039712 -0.02695619 -0.010013733 0.0031342045 -0.008338372
-0.016760932 0.036406778 -0.13460061 0.100272134 0.07997925 -0.00084649015 0.037390128 -0.09404656
0.0010237746 -0.036579013 0.084708 -0.05475481 -0.10155231 0.0048315446 0.019551106 -0.123254344
-0.051799145 -0.014395036 -0.19605815 0.06366574 0.04509757 0.08767454 0.036218956 -0.33960256
0.009496924 0.072789565 0.115734234 -0.013215188 0.061521973 -0.090577826 0.04310517 0.030251782
0.13783741 0.13882908 0.027231244 -0.07404698 -0.017276667 0.0380496 0.009090971 -0.12201934
-0.024763146 -0.124264814 0.09059116 -0.1101039 -0.115398884 -0.06449606 -0.1430593 0.029423548
-0.09703741 0.044144653 0.041360013 -0.02506083 -0.09410104 -0.0034641442 0.04289783 -0.046121538
-0.00787481 0.074445434 0.13951574 -0.048523057 -0.11609012 0.03640399 0.03518081 0.10010521
0.08735939 0.033893205 -0.049604893 0.0071105487 0.07186238 -0.02373249 -0.08230431 -0.025083598
0.019567 0.0059831594 -0.12565842 -0.0069632 -0.087697566 0.16516237 -0.036967777 0.0070637134
-0.011762893 0.055983 -0.07223374 -0.027072717 -0.14440061 -0.023011299 -0.022323642 0.03231521
0.024106322 -0.019318182 -0.0919853 -0.069121696 -0.03217022 -0.0157953 0.017990775 -0.19804446
0.027483085 -0.01872902 -0.13647975 -0.1438882 -0.05136747 0.15666142 -0.07911937 -0.13680819
0.05938207 -0.002232465 -0.07689593 0.22797674 0.05993802 0.057565376 -0.18900315 -0.08437567
0.03218796 -0.036706124 0.03772725 0.017557824 -0.08738455 -0.02829232 0.012764907 0.15472247
-0.05327956 -0.15823947 -0.069439925 0.074299715 -0.054507457 0.13760674 0.054379996 -0.08498866
0.038799446 -0.020432392 -0.0005036799 0.121554635 0.0006832465 0.09620696 0.036104932 0.00790622
0.063870296 -0.061916444 0.1634826 -0.15310526 0.12525775 0.11482681 0.018069692 -0.14682703
-0.023535559 -0.18064748 0.06696788 0.06772291 -0.041389335 0.10880204 0.015540121 0.09653913
00000000: 914c a4bd 5402 8b3d 4fb9 a2bd 65ba 4dbd
00000010: db74 12bd ecfa a7bd 1cf3 6e3d 6862 143e
00000020: 15ee 30be 424d 973c d37f c63d 4647 bdbd
00000030: 366c a13d bb66 e53c 20f9 54be 2865 a8bd
00000040: e055 04be 5ba0 813c f570 3a3c 44a6 373d
00000050: 4b7b 14be 15c1 f53d 6486 e13c 13d3 53bd
00000060: 10a7 bfbd 73cf 5fbb 187f 273d 2644 3d3d
00000070: 7101 573c c97f 0bbe 963b b53d 6fe5 ccbb
00000080: b6c9 923c c391 3c3e 71c2 dabd 162b 13be
00000090: b6a7 a63d 78a7 82be 3f93 a6bd bcc1 4fbd
000000a0: 3550 d7bd cb9a a6bd ece0 2bbd f536 273d
000000b0: f510 3fbe 895e 9d3d 91b4 43bd b2a2 aebd
000000c0: df3a febd 2a3e cf3c 3612 5dbe ab74 3b3d
000000d0: e0e6 003e d680 d4bc 19a4 b0bb edd5 103e
000000e0: 56c7 fdbd a2d9 b73d 0ac2 5bbc 0d28 983c
000000f0: e31a 3fbd 0645 13be 229d 43bd 8942 8cbd
00000100: 60b3 96bd 9b2c 6ebc def0 fcbd 1a38 06be
00000110: 7465 283e ee29 02bd d9da 1bbe 8e56 88ba
00000120: f68e 0abd 21f1 c9bd 0f89 113c 1671 183e
00000130: d97d b9bd 0c9e 1bbd 84a7 233e 691c 54be
00000140: 302b b8bd 78c0 fcbb 4318 a9bc 2a7b fabd
00000150: 7d06 883d ffef 5cbe 54f9 db3c de82 c9bd
00000160: e1b4 23bd 1d20 acbd 69c6 90bd 7bdb 183d
00000170: 1689 2a3d 8e83 ef3c 5adb 873c 0cfc 01bd
00000180: d3b1 6c3d 7901 2a3d 1439 45bd 7377 253d
00000190: 3ad3 dcbc a410 24bc 3a67 4d3b ab9d 08bc
000001a0: 394e 89bc 461f 153d bed4 09be 7a5b cd3d
000001b0: 29cc a33d fee6 5dba 6426 193d 7c9b c0bd
000001c0: 2d30 863a e0d3 15bd 637b ad3d 9446 60bd
000001d0: a8fa cfbd ef51 9e3b a429 a03c c66c fcbd
000001e0: 572b 54bd 28d9 6bbc 78c3 48be 2f63 823d
000001f0: 3bb8 383d b68e b33d 545a 143d 63e0 adbe
00000200: fc98 1b3c b212 953d 1206 ed3d 8484 58bc
00000210: 77fe 7b3d de80 b9bd 0c8f 303d 96d2 f73c
00000220: 4025 0d3e 3629 0e3e 0f14 df3c f1a5 97bd
00000230: cc87 8dbc e6d9 1b3d 4cf2 143c 47e5 f9bd
00000240: 15dc cabc 8d7e febd dc87 b93d 277e e1bd
00000250: 4056 ecbd 8316 84bd 237e 12be a709 f13c
00000260: 8dbb c6bd 06d1 343d 1e69 293d 5f4c cdbc
00000270: 0cb8 c0bd b206 63bb a3b5 2f3d f0e9 3cbd
00000280: 5905 01bc d976 983d 37dd 0e3e 1dc0 46bd
00000290: a8c0 edbd 5a1c 153d c119 103d f603 cd3d
000002a0: 7be9 b23d 9ad3 0a3d 802e 4bbd 9bff e83b
000002b0: 952c 933d a46a c2bc 298f a8bd 1e7c cdbc
000002c0: f94a a03c 610e c43b 9aac 00be 8e2b e4bb
000002d0: c89a b3bd 5320 293e 866b 17bd b976 e73b
000002e0: 26b9 40bc 6e4e 653d 48ef 93bd 9ac7 ddbc
000002f0: c1dd 13be 3182 bcbc 12e0 b6bc f45c 043d
00000300: 9f7a c53c 2a41 9ebc ca62 bcbd ad8f 8dbd
00000310: ecc4 03bd 2565 81bc 6461 933c 2bcc 4abe
00000320: 3524 e13c 9a6d 99bc 59c1 0bbe 6e57 13be
00000330: b266 52bd da6b 203e 5609 a2bd 7217 0cbe
00000340: 9d3a 733d 8c4e 12bb 9d7b 9dbd bc72 693e
00000350: 9281 753d acc9 6b3d 0b8a 41be 27cd acbd
00000360: 86d7 033d 2959 16bd e487 1a3d 6dd5 8f3c
00000370: acf6 b2bd 4cc5 e7bc e723 513c 916f 1e3e
00000380: ab3b 5abd 8709 22be 8536 8ebd 732a 983d
00000390: 3643 5fbd c8e8 0c3e 8fbd 5e3d 890e aebd
000003a0: 2bec 1e3d d561 a7bc 6309 04ba a3f1 f83d
000003b0: e51b 333a 2808 c53d c4e2 133d 1789 013c
000003c0: 6ece 823d 199c 7dbd fc67 273e a0c7 1cbe
000003d0: 9143 003e 522a eb3d e406 943c d359 16be
000003e0: a5cd c0bc a7fb 38be 7526 893d 4fb2 8a3d
000003f0: dd87 29bd 9bd3 de3d fe9b 7e3c 4fb6 c53d

network_body._body_endoder.seq_layers.2.bias f4 [128]
-0.0019419239 -0.041634966 0.004307424 -0.02497919 -0.010143302 0.05150008 0.0061669275 0.0007852188
-0.003957433 0.049672276 -0.030594414 -0.014375027 0.017852053 -0.007925018 -0.005061018 -0.006854427
0.00790744 0.028817892 -0.00044224266 -0.01919132 -0.011037618 -0.0264219 -0.02164518 0.053911842
0.03568687 0.019712506 0.053359028 0.04194921 0.051775653 0.0073178955 0.0086116735 0.02774274
-0.017879497 -0.015032796 0.0056564338 0.020320278 -0.012702075 -0.032180674 0.048684057 -0.015066469
-0.019780474 0.035272893 -0.025175227 -0.0064863227 0.017164664 -0.021504521 0.0034131133 -0.021361979
0.068935126 -0.006253042 0.031611186 -0.021479934 0.022212185 0.036855653 -0.0005043683 0.03610298
-0.008213528 0.031880815 0.025208013 -0.0054788496 0.0156393 0.040781423 -0.020008674 0.0074903546
0.051033027 -0.012037641 0.022228172 -0.009158299 0.012851696 -0.010152736 -0.02635103 0.04910658
-0.0059056072 -0.03726286 -0.020682389 -0.007879855 -0.007877368 -0.02320203 -0.016031295 0.03920518
0.020036329 0.020146266 -0.023427034 0.051908955 0.053830657 0.011201586 -0.023237802 -0.0050595226
-0.017544698 0.0019559679 -0.032324888 -0.012672758 0.026819117 0.025730394 -0.0004536741 -0.02724908
-0.039180048 -0.005474563 0.005970895 -0.010393749 -0.053116925 -0.0048052426 0.052362535 -0.049690448
-0.026289567 0.030474499 0.03223195 -0.006868146 -0.037817713 -0.016763523 -0.030190839 -0.019349411
0.034823872 -0.013172402 -0.00451757 -0.0061209816 0.03880603 0.0018607498 -0.0032666447 -0.008873122
-0.045131236 -0.029129058 -0.033203706 -0.023339659 -0.013016128 0.0067917714 -0.025475655 -0.03046229
00000000: 2788 feba 6d89 2abd 4b25 8d3b 29a1 ccbc
00000010: 1830 26bc bff1 523d f013 ca3b 24d7 4d3a
00000020: 5bad 81bb 2875 4b3d 23a1 fabc 3c85 6bbc
00000030: 783e 923c efd7 01bc e5d6 a5bb 1a9b e0bb
00000040: 358e 013c 8013 ec3c cedc e7b9 1d37 9dbc
00000050: 20d7 34bc be72 d8bc 3c51 b1bc aad2 5c3d
00000060: 652c 123d 1f7c a13c ff8e 5a3d efd2 2b3d
00000070: b512 543d f5ca ef3b fa17 0d3c be44 e33c
00000080: 0678 92bc 1e4c 76bc 9b59 b93b b676 a63c
00000090: 5d1c 50bc e2cf 03bd ef68 473d 5ad9 76bc
000000a0: a90a a2bc 4f7a 103d 473c cebc 388b d4bb
000000b0: e99c 8c3c 402a b0bc 8aae 5f3b 51ff aebc
000000c0: dc2d 8d3d 51e6 ccbb bb7a 013d b0f6 afbc
000000d0: 54f6 b53c f4f5 163d 9537 04ba b8e0 133d
000000e0: 0992 06bc 7595 023d 0981 ce3c ec87 b3bb
000000f0: fd1d 803c 6c0a 273d 3be9 a3bc a671 f53b
00000100: 0208 513d 8739 45bc db17 b63c b10c 16bc
00000110: ec8f 523c a957 26bc 1ede d7bc fb23 493d
00000120: d383 c1bb f1a0 18bd 1d6e a9bc 821a 01bc
00000130: 1310 01bc 2f12 bebc 1054 83bc 9c95 203d
00000140: 3a23 a43c c809 a53c 0dea bfbc 7c9e 543d
00000150: 897d 5c3d db86 373c 345d bebc 5aca a5bb
00000160: e6b9 8fbc b22f 003b 1a67 04bd 66a1 4fbc
00000170: c4b3 db3c 8cc8 d23c 1bdb edb9 7639 dfbc
00000180: 427b 20bd f763 b3bb 7fa7 c33b 8b4a 2abc
00000190: 2291 59bd 4c75 9dbb 197a 563d 3688 4bbd
000001a0: 385d d7bc a8a5 f93c a605 043d 2f0e e1bb
000001b0: bfe6 1abd a853 89bc c752 f7bc a882 9ebc
000001c0: 7aa3 0e3d 0fd1 57bc 2008 94bb 8492 c8bb
000001d0: 12f3 1e3d 67e4 f33a 3415 56bb 9260 11bc
000001e0: 88db 38bd 10a0 eebc 9c00 08bd d032 bfbc
000001f0: 9941 55bc 828d de3b 52b2 d0bc 0d8c f9bc

action_model._continuous_distribution.log_sigma f4 [1, 2]
-0.12809229 -0.17841439
00000000: a02a 03be 43b2 36be

action_model._continuous_distribution.mu.weight f4 [2, 128]
0.0074689337 0.0069967085 0.006587403 0.023294244 0.01108031 -0.028640332 0.057748277 -0.0023580727
-0.011011726 -0.10075697 -0.015906684 0.016547466 -0.05848575 -0.0028099886 0.0043329936 -0.017848382
0.03462794 -0.05699264 0.022512157 0.016089508 0.005800672 -0.0046013705 0.0005015289 -0.083435684
-0.0703876 -0.034323134 -0.07784982 -0.08007015 -0.09512894 -0.024106039 0.043665167 0.057557434
0.01637628 0.017398544 -0.04248182 -0.05849914 -0.013192947 -0.0094540985 -0.058704264 0.011550071
0.0062325154 -0.084452875 -0.0004919677 0.018019725 -0.0025110708 0.01061824 -0.015643284 -0.0060039973
0.038178597 0.0060923155 0.11776437 0.013397755 0.053295147 0.03601111 0.053986337 -0.0316297
0.024306709 -0.04166419 0.031181922 -0.013695936 0.029168455 -0.031979036 -0.0037350764 0.030972743
-0.0702019 0.029872704 -0.02506203 0.0022538078 0.026761468 0.03912974 -0.0076475106 -0.09501481
0.005659519 0.014788068 -0.008600673 -0.003848406 0.04604558 -0.019350884 0.00071747345 -0.0018647151
-0.04159899 -0.015718179 0.0094982255 -0.09436239 -0.044684786 -0.01858923 -0.0010750627 0.015651863
0.05570546 -0.004429455 0.023980567 -0.00718157 -0.03977929 -0.07132572 -0.013526309 0.019098613
0.0025991092 -0.0008279606 -0.0064144144 0.022092475 0.0032071597 -0.015522907 0.100390784 0.0035684295
-0.011106382 0.00880367 -0.046345785 -0.03048053 -0.004191871 0.016829805 -0.009381661 0.0022186334
-0.04091051 0.009908681 0.012664944 0.011669814 0.02219538 -0.012206156 -0.0053006574 0.02810069
0.0010132405 0.0039983327 -0.004420204 -0.0021766564 -0.0087395515 0.014940905 -0.0014880432 -0.0049554044
0.024892587 0.0115689095 -0.03634464 0.009941948 0.033127867 0.08889697 0.016689846 0.004428484
0.03177209 0.06178898 0.004406816 -0.0064196778 -0.032998156 0.034539912 -0.051929023 0.032499764
-0.071052335 -0.0476215 -0.022033963 -0.0055998843 -0.0013616085 -0.008646858 -0.018494062 0.0040780697
-0.05752345 0.0247496 -0.008202445 -0.014345672 -0.035100907 0.020129675 0.042259213 0.053263642
-0.018575003 -0.01070764 0.027161056 -0.037590865 0.012222115 -0.0042518694 -0.06609731 0.0031637908
0.03004992 -0.027383165 -0.0020345633 -0.02119292 0.053364493 -0.008416761 -0.01332624 0.008425383
0.109455004 -0.0030065558 0.06038283 0.022482444 -0.03303297 0.08543128 -0.034720503 0.064943716
-0.015317242 0.101765975 0.055203438 -0.036534086 0.035175297 0.05926439 -0.0042677466 -0.051871862
0.011161848 -0.03180882 -0.066315286 -0.031975448 -0.05295338 -0.00010763423 -0.0030677337 0.03988104
-0.007934642 -0.0056409733 -0.0060079778 0.015424631 -0.010308376 0.048220932 0.002727881 -0.07786539
0.003039602 0.08002411 -0.0034159063 0.08985527 0.09253512 -0.048493885 0.0149472095 -0.018477825
0.012322904 -0.03882712 -0.012003349 0.004144321 0.032384597 -0.037309054 -0.007781032 -0.0031482324
-0.004869569 0.021024475 -0.04101727 0.02673911 -0.002863049 0.018903172 0.066683196 0.0013764576
-0.00047887707 0.057549383 0.058609467 0.030626345 0.0070847534 -0.004416159 0.002083434 0.0037248968
0.045679238 -0.0067523136 -0.0201246 0.039504718 0.050484557 -0.06081313 -0.0073128566 -0.0079624085
0.020608565 0.005447301 0.0011963444 0.014554666 -0.00057868107 -0.03534454 -0.0016760456 0.014248318
00000000: f5bd f43b a544 e53b 24db d73b 92d3 be3c
00000010: 308a 353c 219f eabc 7589 6c3d e589 1abb
00000020: 876a 34bc ac59 cebd bc4e 82bc 8d8e 873c
00000030: c18e 6fbd c927 38bb c9fb 8d3b c536 92bc
00000040: 07d6 0d3d 1d71 69bd 6a6b b83c 25ce 833c
00000050: 9013 be3b 18c7 96bb 0979 033a 54e0 aabd
00000060: 6027 90bd 6a96 0cbd ba6f 9fbd d2fb a3bd
00000070: f6d2 c2bd 077a c5bc 3fda 323d 58c1 6b3d
00000080: 8c27 863c 6487 8e3c 6b01 2ebd cb9c 6fbd
00000090: 3b27 58bc 5de5 1abc e273 70bd 823c 3d3c
000000a0: 213a cc3b a1f5 acbd 65f7 00ba 1a9e 933c
000000b0: c790 24bb 20f8 2d3c 5826 80bc 2ebd c4bb
000000c0: 2961 1c3d 0ca2 c73b 722e f13d 4282 5b3c
000000d0: 034c 5a3d 6380 133d c720 5d3d 258e 01bd
000000e0: dd1e c73c 12a8 2abd 3b71 ff3c eb64 60bc
000000f0: aff2 ee3c 73fc 02bd 2fc8 74bb 8dba fd3c
00000100: 04c6 8fbd 9ab7 f43c e34e cdbc 9fb4 133b
00000110: de3a db3c 8246 203d f897 fabb 2097 c2bd
00000120: 7d73 b93b a749 723c d6e9 0cbc 8a35 7cbb
00000130: 4a9a 3c3d bf85 9ebc d414 3c3a 7569 f4ba
00000140: b463 2abd 69c3 80bc 729e 1b3c 1241 c1bd
00000150: 6507 37bd 7148 98bc 1ee9 8cba 5638 803c
00000160: 692b 643d f624 91bb e572 c43c 6053 ebbb
00000170: 9cef 22bd 3813 92bd 749d 5dbc b274 9c3c
00000180: d155 2a3b 7f0b 59ba 0230 d2bb 47fb b43c
00000190: 362f 523b ca53 7ebc af99 cd3d 50dc 693b
000001a0: 8bf7 35bc 453d 103c 14d5 3dbd 4eb2 f9bc
000001b0: f65b 89bb a9de 893c 8ab5 19bc 7e66 113b
000001c0: c791 27bd 0558 223c a080 4f3c bf32 3f3c
000001d0: 16d3 b53c 54fc 47bc 23b1 adbb 6b33 e63c
000001e0: b6ce 843a 7204 833b 5cd7 90bb 3ca6 0ebb
000001f0: 5630 0fbc b3ca 743c 720a c3ba f260 a2bb
00000200: 8aeb cb3c 868b 3d3c 1ede 14bd 8de3 223c
00000210: 16b1 073d 9d0f b63d 25b9 883c d11c 913b
00000220: 7323 023d 7116 7d3d 0d67 903b 295c d2bb
00000230: 1329 07bd b979 0d3d 87b3 54bd 791e 053d
00000240: e383 91bd c30e 43bd 9280 b4bc 3c7f b7bb
00000250: 0078 b2ba 8dab 0dbc dc80 97bc 54a1 853b
00000260: b69d 6bbd acbf ca3c 8c63 06bc 1c0a 6bbc
00000270: f8c5 0fbd fde6 a43c ff17 2d3d fa2a 5a3d
00000280: 9b2a 98bc 196f 2fbc dd80 de3c e1f8 19bd
00000290: 443f 483c 4453 8bbb 075e 87bd 9a57 4f3b
000002a0: 402b f63c a952 e0bc 4f56 05bb c69c adbc
000002b0: ba94 5a3d 74e6 09bc 4d56 5abc 9e0a 0a3c
000002c0: f229 e03d a309 45bb fd53 773d 1a2d b83c
000002d0: 944d 07bd 98f6 ae3d 1637 0ebd 3601 853d
000002e0: 2bf5 7abc ae6a d03d 001d 623d c4a4 15bd
000002f0: f913 103d 38bf 723d 74d8 8bbb 9777 54bd
00000300: 2fe0 363c f749 02bd 4fd0 87bd b0f8 02bd
00000310: a5e5 58bd b0b9 e1b8 080c 49bb 4d5a 233d
00000320: 4d00 02bc ead7 b8bb 92de c4bb 97b7 7c3c
00000330: 76e4 28bc 5083 453d 40c6 323b e477 9fbd
00000340: 0f34 473b aee3 a33d 66dd 5fbb 0a06 b83d
00000350: 0e83 bd3d 86a1 46bd 24e5 743c cf5e 97bc
00000360: 01e6 493c 3009 1fbd b2a9 44bc 16cd 873b
00000370: b6a5 043d 61d1 18bd 07f8 febb 9352 4ebb
00000380: e890 9fbb 853b ac3c ba01 28bd fa0b db3c
00000390: fea1 3bbb d3da 9a3c 3391 883d 416a b43a
000003a0: cb11 fbb9 e7b8 6b3d 7b10 703d 1ae4 fa3c
000003b0: 3827 e83b 6db5 90bb 398a 083b 661d 743b
000003c0: 271a 3b3d 8342 ddbb 58dc a4bc b3cf 213d
000003d0: e5c8 4e3d 3017 79bd b0a0 efbb c374 02bc
000003e0: 4bd3 a83c 467f b23b a8ce 9c3a b276 6e3c
000003f0: a1b2 17ba 70c5 10bd c2ae dbba c771 693c

action_model._continuous_distribution.mu.bias f4 [2]
-0.005750702 -0.0015146864
00000000: 6370 bcbb 7188 c6ba

50 f4 [8]
0.05128906 0.04924189 0.58992165 0.1754035 0.61417025 0.46458545 0.58917075 0.47777846
00000000: 7a14 523d ddb1 493d 1b05 173f fa9c 333e
00000010: 433a 1d3f 25de ed3e e5d3 163f 619f f43e
