Tests/Editor/TestModels/discrete1vis0vec_2_3action_obsolete_recurr_v1_0.onnx (onnx, 399647 bytes, 18 tensors)

124 f4 [1, 256, 128]
0.09738241 0.02054806 -0.09943276 0.02597697 0.13699047 -0.100372784 -0.025852114 0.104467556
0.08974601 0.06440981 -0.07957563 -0.15282036 0.083522394 0.116423324 -0.13508296 0.10975708
-0.115134016 0.12927087 0.071928844 0.16331078 0.04603283 0.109598264 -0.13717486 0.047136784
0.1697372 -0.10728794 -0.15395078 -0.00303033 -0.06373826 0.1723515 0.05437118 0.16308077
-0.14164124 -0.023875311 -0.0018788874 0.02772218 0.14558081 -0.08647117 -0.09387631 0.1624357
0.17318313 -0.0069244355 -0.024932727 -0.10441186 0.13156487 0.07534926 0.10330741 0.12005179
-0.039945394 -0.0140993 0.050289914 0.12763561 -0.03084144 -0.11866921 0.11059876 -0.00016060472
0.092474446 -0.14398652 0.021291569 -0.09087166 -0.12764059 0.05630514 -0.16271606 0.14479075
0.0060860515 -0.009691119 -0.035680115 0.06396398 -0.07615575 0.17103712 0.08873393 -0.030708387
0.043558404 0.0060510933 -0.11192214 -0.15025808 -0.039263815 0.023575068 0.08571173 0.15561415
-0.10130726 0.086844936 -0.035194933 -0.08708814 -0.042290166 -0.0013558269 -0.09171089 0.1752866
0.09533252 0.110002086 -0.02854471 -0.01828891 -0.0045538396 -0.16765822 0.022863016 0.11939345
0.02301018 0.10371746 0.059991762 -0.102978654 0.11101629 0.06201546 0.12194939 0.07277857
-0.096654184 -0.14862542 0.072283804 -0.13054612 0.023696303 0.15200453 0.008086309 0.11323102
-0.046184853 0.14360939 0.055398256 -0.045356244 -0.044843882 -0.05060093 0.109803215 -0.039396763
0.12219001 0.17493527 0.066600665 -0.0059738904 -0.054573044 0.023223251 -0.12315634 -0.11811797
0.111045286 -0.095852576 0.11565216 0.12874423 0.027768329 -0.1398665 0.053727984 0.041573375
-0.1071325 0.036364347 -0.072939925 -0.029627964 0.09474121 -0.16829123 -0.068776704 0.13776763
0.030055448 0.13338922 -0.050080404 -0.107756004 0.08683823 -0.086970545 -0.022164881 0.09477036
-0.1716985 -0.055895656 -0.1391121 -0.15205476 0.055637658 0.13884614 0.16936235 0.0865473
0.023339361 -0.053964697 -0.16620055 0.00038553774 -0.10781769 -0.11382121 0.021513164 -0.02881965
0.11531372 0.16580643 0.16545717 0.1706848 0.016915023 -0.12886085 0.03528835 -0.11098074
0.060541973 -0.16167587 -0.11315603 -0.15885845 0.08352469 0.14658506 -0.02242887 -0.16689277
-0.14277771 0.009842172 -0.053191215 -0.12425485 0.15090422 0.1396081 0.08591311 -0.15193494
0.041689098 -0.06858384 -0.004790753 -0.17206126 0.021997094 0.033564374 0.09854595 -0.096180834
-0.07166987 0.143551 0.09577356 0.02093701 -0.05811239 0.10363974 -0.07554553 -0.013564229
0.02068162 -0.10999919 -0.032071352 0.016238734 -0.124449484 -0.16485609 0.10832824 -0.052297197
0.14882408 -0.1439521 0.13934596 -0.04011862 0.08683063 0.033073515 -0.16380924 -0.030395374
0.11974718 -0.060582213 0.114588335 0.0740795 0.12696569 0.17143808 0.055844575 0.111735776
0.11835797 0.07836519 -0.16677082 0.1018893 0.09838419 0.09872283 0.17204593 -0.1231121
-0.09866701 -0.05759514 -0.12114568 -0.0074242502 0.11674003 0.06771545 0.098423734 0.14353584
-0.13011876 -0.096355446 -0.0743569 0.045792043 0.10450499 0.051813856 0.16727139 0.14876108
00000000: 6e70 c73d 6854 a83c 67a3 cbbd a8cd d43c
00000010: 3b47 0c3e 3f90 cdbd d0c7 d3bc 16f3 d53d
00000020: c2cc b73d 4ae9 833d 8cf8 a2bd f17c 1cbe
00000030: ca0d ab3d 5a6f ee3d 3053 0abe 52c8 e03d
00000040: 62cb ebbd 955f 043e 6e4f 933d f13a 273e
00000050: ec8c 3c3d 0e75 e03d 9177 0cbe 8012 413d
00000060: 97cf 2d3e c8b9 dbbd 46a5 1dbe 8098 46bb
00000070: 3489 82bd e97c 303e 50b4 5e3d a5fe 263e
00000080: 670a 11be 2896 c3bc 0045 f6ba a019 e33c
00000090: 2313 153e cc17 b1bd 3942 c0bd 8b55 263e
000000a0: eb56 313e 60e6 e2bb b83f ccbc e3d5 d5bd
000000b0: f1b8 063e b650 9a3d d692 d33d b6dd f53d
000000c0: c89d 23bd c000 67bc ccfc 4d3d e9b2 023e
000000d0: 30a7 fcbc d808 f3bd 9a81 e23d 0068 28b9
000000e0: 3e63 bd3d 3471 13be a86b ae3c ec1a babd
000000f0: 37b4 02be 38a0 663d 0a9f 26be 0744 143e
00000100: 806d c73b 80c7 1ebc 5025 12bd 8cff 823d
00000110: 8cf7 9bbd 5b24 2f3e 22ba b53d 2890 fbbc
00000120: 4c6a 323d 4048 c63b 6f37 e5bd 41dd 19be
00000130: 18d3 20bd 8020 c13c a289 af3d 5159 1f3e
00000140: 2e7a cfbd c2db b13d 9028 10bd 445b b2bd
00000150: 7438 2dbd 00b6 b1ba ebd2 bbbd 557e 333e
00000160: b23d c33d c648 e13d 98d6 e9bc a0d2 95bc
00000170: 6038 95bb 99ae 2bbe 384b bb3c 8e84 f43d
00000180: d87f bc3c d269 d43d ecb9 753d 79e6 d2bd
00000190: 825c e33d ec03 7e3d 9ac0 f93d ee0c 953d
000001a0: a1f2 c5bd 4331 18be 8809 943d e2ad 05be
000001b0: c01e c23c 13a7 1b3e 707c 043c aae5 e73d
000001c0: 542c 3dbd 570e 133e 48e9 623d 78c7 39bd
000001d0: 38ae 37bd ec42 4fbd 82e0 e03d 805e 21bd
000001e0: c23e fa3d 3b22 333e ee65 883d a0c0 c3bb
000001f0: fc87 5fbd b03e be3c 6439 fcbd d6e7 f1bd
00000200: b66b e33d 5b4e c4bd 0adb ec3d 87d5 033e
00000210: 687a e33c 2a39 0fbe e011 5c3d d848 2a3d
00000220: 4968 dbbd c8f2 143d 8761 95bd 58b6 f2bc
00000230: ae07 c23d 8954 2cbe cdda 8cbd f512 0d3e
00000240: d836 f63c 2f97 083e 1c21 4dbd 2eaf dcbd
00000250: 3ed8 b13d 9d1d b2bd 2093 b5bc f616 c23d
00000260: bbd1 2fbe d8f2 64bd 6773 0ebe 3eb4 1bbe
00000270: 50e4 633d af2d 0e3e 536d 2d3e b63f b13d
00000280: 3032 bf3c 160a 5dbd 7a30 2abe 0022 ca39
00000290: 85cf dcbd 181b e9bd 603c b03c 3017 ecbc
000002a0: 9a29 ec3d 29c9 293e 9b6d 293e ffc7 2e3e
000002b0: 6091 8a3c 19f4 03be 848a 103d df49 e3bd
000002c0: dcfa 773d 5c8e 25be 59be e7bd caab 22be
000002d0: fe0e ab3d 651a 163e c0bc b7bc f0e5 2abe
000002e0: 5234 12be 1041 213c 08df 59bd 5479 febd
000002f0: a386 1a3e 6df5 0e3e 36f3 af3d d594 1bbe
00000300: 30c2 2a3d af75 8cbd c0fb 9cbb d430 30be
00000310: 4033 b43c cc7a 093d 76d2 c93d 75fa c4bd
00000320: a7c7 92bd 09ff 123e ee24 c43d 1884 ab3c
00000330: 4207 6ebd 1241 d43d 9db7 9abd 803c 5ebc
00000340: 806c a93c 4147 e1bd 405d 03bd 1807 853c
00000350: 5fdf febd 09d0 28be 32db dd3d 9635 56bd
00000360: 5765 183e 2e68 13be b5b0 0e3e 6c53 24bd
00000370: 42d4 b13d 1878 073d 9cbd 27be b8ff f8bc
00000380: 023e f53d 0e25 78bd 4aad ea3d feb6 973d
00000390: 4b03 023e 778d 2f3e 48bd 643d bad5 e43d
000003a0: aa65 f23d ee7d a03d f8c5 2abe 56ab d03d
000003b0: a67d c93d 322f ca3d cf2c 303e 3222 fcbd
000003c0: ee11 cabd e2e8 6bbd 3a1b f8bd 2047 f3bb
000003d0: 6615 ef3d 66ae 8a3d 6292 c93d 0ffb 123e
000003e0: da3d 05be 0156 c5bd 6e48 98bd 7090 3b3d
000003f0: b606 d63d c43a 543d 3149 2b3e d354 183e

125 f4 [1, 256, 64]
0.18458335 -0.0075377375 -0.020692125 0.19778194 0.14426292 0.08005066 0.13461788 0.020720959
0.04184355 0.11008166 0.14343421 0.2136942 0.16497774 -0.21050598 -0.14254123 0.019346207
-0.19730604 0.10450773 0.009466901 -0.07474941 -0.029731825 0.20460294 -0.06255326 0.019384563
-0.20821539 0.0840594 -0.017108545 0.2120765 -0.094454706 0.027639285 -0.15050977 -0.18445309
0.09531684 -0.007907867 0.067245886 -0.18003234 0.054565683 -0.17764798 0.03717999 0.06907602
-0.08820753 0.054394886 -0.19444206 -0.11448998 0.15827824 0.085518494 -0.15158191 -0.20588674
-0.04997857 -0.2098586 0.009267345 -0.12913895 -0.08906224 0.097920015 0.0017027557 0.19577052
-0.07958767 -0.0955528 0.21242513 0.115954354 -0.032470733 0.079596594 0.14065002 0.10136531
0.11297591 0.047451094 0.16415681 -0.11227226 -0.18386424 -0.04924409 -0.019289523 -0.07192272
0.11833675 0.057597443 -0.09628143 -0.14481196 -0.07696827 -0.043832153 -0.18366024 -0.0117749125
-0.08993165 -0.11893485 0.11915739 0.18276693 -0.1395545 0.035224065 0.15752213 0.17077325
0.019243866 0.20638545 -0.11228677 0.041553214 0.05235596 -0.09507011 -0.17540962 -0.035025448
0.14956282 -0.14094396 -0.08788422 0.16492112 -0.037357464 0.0356815 -0.08483659 -0.048099384
-0.18931174 0.033152953 -0.03747967 0.1913902 0.0335166 -0.08141962 -0.1774778 -0.09181614
-0.118612744 0.10320248 -0.11124048 -0.0721969 0.19393183 0.18454517 0.16802771 0.20426466
0.078367695 0.009476423 -0.063726306 0.11208822 0.19515459 -0.0967785 -0.015710488 0.06658442
-0.08697446 -0.101639494 -0.006841421 -0.14236632 0.020437539 0.1613548 -0.09612461 -0.07169844
-0.1594744 -0.06572631 0.109871015 -0.1357987 0.1189809 0.004585609 0.017942756 0.1633233
0.20952211 0.017108157 -0.15412663 0.06905095 0.0836346 -0.04550697 0.14367671 -0.16921769
-0.08122583 0.21063764 -0.007206425 -0.02208297 0.14705665 -0.024031669 0.010593221 -0.0036004335
0.11400472 -0.20629993 -0.114610665 0.039238706 0.09360494 -0.1420187 0.029365689 0.20886417
-0.15274432 -0.027892947 0.19698648 -0.1327619 -0.0067867488 0.1790619 0.21405642 0.16993321
0.12218471 -0.13464186 -0.021087706 -0.07131016 0.20837109 0.17825304 -0.05543123 -0.1837611
-0.21324663 -0.2049782 -0.21081844 0.1840357 -0.17091545 0.04952638 0.13552283 0.18580766
-0.008109063 0.13788535 -0.022504285 0.19227155 -0.14262731 -0.18891226 0.17433034 -0.044962466
-0.20662926 0.17215721 0.12774555 -0.02932091 -0.048917085 -0.107416786 -0.15897274 0.09863205
-0.15439062 0.05327712 0.2061043 0.02779971 0.15882339 -0.18832909 0.065233454 -0.14189734
0.067845985 -0.04051228 0.031285763 -0.07086256 0.16927136 0.048614725 0.013802975 0.18251167
0.044779435 0.013799757 -0.20982614 -0.011140034 0.2085693 0.14334162 0.014400378 -0.18538223
0.003909275 -0.06943223 0.1351458 0.06276782 0.17139898 0.10722576 0.038818583 -0.14047712
0.09140463 -0.11705708 -0.030780822 0.19960998 -0.20453398 0.14344914 -0.15962094 0.05375357
-0.2140678 -0.10091567 0.02556105 0.14367999 0.15939836 0.078566745 -0.14910477 0.10694225
00000000: 6b03 3d3e 20ff f6bb 8882 a9bc 5987 4a3e
00000010: a9b9 133e 9af1 a33d 45d9 093e 00bf a93c
00000020: 2464 2b3d 7e72 e13d 6be0 123e a7d2 5a3e
00000030: edef 283e e18e 57be 54f6 11be f07b 9e3c
00000040: 980a 4abe 2608 d63d 101b 1b3c 3816 99bd
00000050: 2890 f3bc 6f83 513e ec1b 80bd 60cc 9e3c
00000060: 6a36 55be 5627 ac3d 3827 8cbc 952a 593e
00000070: 7871 c1bd c86b e23c 3c1f 1abe 45e1 3cbe
00000080: 7a35 c33d 0090 01bc 36b8 893d 665a 38be
00000090: 4480 5f3d 5ae9 35be 0c4a 183d ba77 8d3d
000000a0: 26a6 b4bd 2ccd 5e3d d21b 47be b979 eabd
000000b0: b113 223e 5224 af3d 4a38 1bbe f9d3 52be
000000c0: 54b6 4cbd 2ce5 56be 10d6 173c 003d 04be
000000d0: 4466 b6bd 4a8a c83d 002f df3a 1178 483e
000000e0: dcfe a2bd 30b1 c3bd f985 593e 7a79 ed3d
000000f0: 0800 05bd 8a03 a33d 8f06 103e 9e98 cf3d
00000100: ea5f e73d 145c 423d b918 283e 00ef e5bd
00000110: e846 3cbe 2cb4 49bd 1005 9ebc 384c 93bd
00000120: 8a5a f23d 4ceb 6b3d 332f c5bd 9649 14be
00000130: 8aa1 9dbd 5889 33bd 6e11 3cbe 90eb 40bc
00000140: 162e b8bd 1d94 f3bd ca08 f43d 4127 3b3e
00000150: 60e7 0ebe 1c47 103d 7b4d 213e 2fdf 2e3e
00000160: 50a5 9d3c b556 533e 9bf6 e5bd b433 2a3d
00000170: 3473 563d 1eb4 c2bd 949e 33be d876 0fbd
00000180: ff26 193e 9d53 10be a4fc b3bd 15e1 283e
00000190: 2404 19bd c426 123d cebe adbd dc03 45bd
000001a0: f0da 41be 64cb 073d 4884 19bd cbfb 433e
000001b0: b448 093d 54bf a6bd bebc 35be 1a0a bcbd
000001c0: 3deb f2bd d25b d33d 0cd2 e3bd f8db 93bd
000001d0: 1196 463e 69f9 3c3e 750f 2c3e c12a 513e
000001e0: 3e7f a03d 0043 1b3c f082 82bd 828e e53d
000001f0: 9bd6 473e ce33 c6bd 48b3 80bc 6a5d 883d
00000200: aa1f b2bd 5e28 d0bd 002e e0bb 7ac8 11be
00000210: a06c a73c 313a 253e fbdc c4bd a2d6 92bd
00000220: 424d 23be 849b 86bd 0e04 e13d d00e 0bbe
00000230: 42ac f33d e042 963b b0fc 923c 393e 273e
00000240: f78c 563e 6826 8c3c 5fd3 1dbe 966a 8d3d
00000250: 9e48 ab3d 8465 3abd fd1f 133e 6747 2dbe
00000260: ba59 a6bd 65b1 573e e023 ecbb 58e7 b4bc
00000270: 0596 163e 10de c4bc 308f 2d3c 40f5 6bbb
00000280: 4e7b e93d 4a40 53be ffb8 eabd c4b8 203d
00000290: f2b3 bf3d 5a6d 11be 5090 f03c 7de0 553e
000002a0: 0269 1cbe c07f e4bc d3b6 493e bcf2 07be
000002b0: 6063 debb 015c 373e 9b31 5b3e f902 2e3e
000002c0: fa3b fa3d 8edf 09be 20c0 acbc 100b 92bd
000002d0: 3b5f 553e f787 363e dc0b 63bd df2b 3cbe
000002e0: 535d 5abe cee5 51be cae0 57be db73 3c3e
000002f0: 7604 2fbe 2cdc 4a3d 7fc6 0a3e 5d44 3e3e
00000300: e0db 04bc d131 0d3e e85a b8bc d5e2 443e
00000310: e50c 12be 3772 41be a783 323e 902a 38bd
00000320: 9f96 53be fb49 303e bbcf 023e 6832 f0bc
00000330: 485d 48bd 55fd dbbd c0c9 22be 9aff c93d
00000340: 9318 1ebe 1c39 5a3d 010d 533e 38bc e33c
00000350: 99a2 223e 57d9 40be 1e99 853d 894d 11be
00000360: d6f2 8a3d 34f0 25bd 8025 003d 6420 91bd
00000370: 7955 2d3e 3c20 473d e025 623c 57e4 3a3e
00000380: a46a 373d 6018 623c aadc 56be b084 36bc
00000390: 3193 553e 25c8 123e 90ef 6b3c d7d4 3dbe
000003a0: 6019 803b 7c32 8ebd a963 0a3e 6a8c 803d
000003b0: 3783 2f3e 2e99 db3d 3c00 1f3d 3cd9 0fbe
000003c0: 5a32 bb3d 9fbb efbd 1028 fcbc 8f66 4c3e
000003d0: 5b71 51be 55e4 123e ac73 23be b42c 5c3d
000003e0: 9734 5bbe e0ac cebd 6865 d13c d920 133e
000003f0: 5339 233e 9ae7 a03d ecae 18be 8a04 db3d

126 f4 [1, 512]
0.0 0.0 0.0 0.0 0.0 0.0 0.0 0.0
0.0 0.0 0.0 0.0 0.0 0.0 0.0 0.0
0.0 0.0 0.0 0.0 0.0 0.0 0.0 0.0
0.0 0.0 0.0 0.0 0.0 0.0 0.0 0.0
0.0 0.0 0.0 0.0 0.0 0.0 0.0 0.0
0.0 0.0 0.0 0.0 0.0 0.0 0.0 0.0
0.0 0.0 0.0 0.0 0.0 0.0 0.0 0.0
0.0 0.0 0.0 0.0 0.0 0.0 0.0 0.0
0.0 0.0 0.0 0.0 0.0 0.0 0.0 0.0
0.0 0.0 0.0 0.0 0.0 0.0 0.0 0.0
0.0 0.0 0.0 0.0 0.0 0.0 0.0 0.0
0.0 0.0 0.0 0.0 0.0 0.0 0.0 0.0
0.0 0.0 0.0 0.0 0.0 0.0 0.0 0.0
0.0 0.0 0.0 0.0 0.0 0.0 0.0 0.0
0.0 0.0 0.0 0.0 0.0 0.0 0.0 0.0
0.0 0.0 0.0 0.0 0.0 0.0 0.0 0.0
1.0 1.0 1.0 1.0 1.0 1.0 1.0 1.0
1.0 1.0 1.0 1.0 1.0 1.0 1.0 1.0
1.0 1.0 1.0 1.0 1.0 1.0 1.0 1.0
1.0 1.0 1.0 1.0 1.0 1.0 1.0 1.0
1.0 1.0 1.0 1.0 1.0 1.0 1.0 1.0
1.0 1.0 1.0 1.0 1.0 1.0 1.0 1.0
1.0 1.0 1.0 1.0 1.0 1.0 1.0 1.0
1.0 1.0 1.0 1.0 1.0 1.0 1.0 1.0
0.0 0.0 0.0 0.0 0.0 0.0 0.0 0.0
0.0 0.0 0.0 0.0 0.0 0.0 0.0 0.0
0.0 0.0 0.0 0.0 0.0 0.0 0.0 0.0
0.0 0.0 0.0 0.0 0.0 0.0 0.0 0.0
0.0 0.0 0.0 0.0 0.0 0.0 0.0 0.0
0.0 0.0 0.0 0.0 0.0 0.0 0.0 0.0
0.0 0.0 0.0 0.0 0.0 0.0 0.0 0.0
0.0 0.0 0.0 0.0 0.0 0.0 0.0 0.0
00000000: 0000 0000 0000 0000 0000 0000 0000 0000
00000010: 0000 0000 0000 0000 0000 0000 0000 0000
00000020: 0000 0000 0000 0000 0000 0000 0000 0000
00000030: 0000 0000 0000 0000 0000 0000 0000 0000
00000040: 0000 0000 0000 0000 0000 0000 0000 0000
00000050: 0000 0000 0000 0000 0000 0000 0000 0000
00000060: 0000 0000 0000 0000 0000 0000 0000 0000
00000070: 0000 0000 0000 0000 0000 0000 0000 0000
00000080: 0000 0000 0000 0000 0000 0000 0000 0000
00000090: 0000 0000 0000 0000 0000 0000 0000 0000
000000a0: 0000 0000 0000 0000 0000 0000 0000 0000
000000b0: 0000 0000 0000 0000 0000 0000 0000 0000
000000c0: 0000 0000 0000 0000 0000 0000 0000 0000
000000d0: 0000 0000 0000 0000 0000 0000 0000 0000
000000e0: 0000 0000 0000 0000 0000 0000 0000 0000
000000f0: 0000 0000 0000 0000 0000 0000 0000 0000
00000100: 0000 0000 0000 0000 0000 0000 0000 0000
00000110: 0000 0000 0000 0000 0000 0000 0000 0000
00000120: 0000 0000 0000 0000 0000 0000 0000 0000
00000130: 0000 0000 0000 0000 0000 0000 0000 0000
00000140: 0000 0000 0000 0000 0000 0000 0000 0000
00000150: 0000 0000 0000 0000 0000 0000 0000 0000
00000160: 0000 0000 0000 0000 0000 0000 0000 0000
00000170: 0000 0000 0000 0000 0000 0000 0000 0000
00000180: 0000 0000 0000 0000 0000 0000 0000 0000
00000190: 0000 0000 0000 0000 0000 0000 0000 0000
000001a0: 0000 0000 0000 0000 0000 0000 0000 0000
000001b0: 0000 0000 0000 0000 0000 0000 0000 0000
000001c0: 0000 0000 0000 0000 0000 0000 0000 0000
000001d0: 0000 0000 0000 0000 0000 0000 0000 0000
000001e0: 0000 0000 0000 0000 0000 0000 0000 0000
000001f0: 0000 0000 0000 0000 0000 0000 0000 0000
00000200: 0000 803f 0000 803f 0000 803f 0000 803f
00000210: 0000 803f 0000 803f 0000 803f 0000 803f
00000220: 0000 803f 0000 803f 0000 803f 0000 803f
00000230: 0000 803f 0000 803f 0000 803f 0000 803f
00000240: 0000 803f 0000 803f 0000 803f 0000 803f
00000250: 0000 803f 0000 803f 0000 803f 0000 803f
00000260: 0000 803f 0000 803f 0000 803f 0000 803f
00000270: 0000 803f 0000 803f 0000 803f 0000 803f
00000280: 0000 803f 0000 803f 0000 803f 0000 803f
00000290: 0000 803f 0000 803f 0000 803f 0000 803f
000002a0: 0000 803f 0000 803f 0000 803f 0000 803f
000002b0: 0000 803f 0000 803f 0000 803f 0000 803f
000002c0: 0000 803f 0000 803f 0000 803f 0000 803f
000002d0: 0000 803f 0000 803f 0000 803f 0000 803f
000002e0: 0000 803f 0000 803f 0000 803f 0000 803f
000002f0: 0000 803f 0000 803f 0000 803f 0000 803f
00000300: 0000 0000 0000 0000 0000 0000 0000 0000
00000310: 0000 0000 0000 0000 0000 0000 0000 0000
00000320: 0000 0000 0000 0000 0000 0000 0000 0000
00000330: 0000 0000 0000 0000 0000 0000 0000 0000
00000340: 0000 0000 0000 0000 0000 0000 0000 0000
00000350: 0000 0000 0000 0000 0000 0000 0000 0000
00000360: 0000 0000 0000 0000 0000 0000 0000 0000
00000370: 0000 0000 0000 0000 0000 0000 0000 0000
00000380: 0000 0000 0000 0000 0000 0000 0000 0000
00000390: 0000 0000 0000 0000 0000 0000 0000 0000
000003a0: 0000 0000 0000 0000 0000 0000 0000 0000
000003b0: 0000 0000 0000 0000 0000 0000 0000 0000
000003c0: 0000 0000 0000 0000 0000 0000 0000 0000
000003d0: 0000 0000 0000 0000 0000 0000 0000 0000
000003e0: 0000 0000 0000 0000 0000 0000 0000 0000
000003f0: 0000 0000 0000 0000 0000 0000 0000 0000

action_model._discrete_distribution.branches.0.bias f4 [2]
0.0 0.0
00000000: 0000 0000 0000 0000

action_model._discrete_distribution.branches.0.weight f4 [2, 64]
-0.008536688 -0.016407631 -0.00059452996 -0.009527251 -0.00897189 0.039024852 0.015030953 0.0074111777
0.01673027 0.0035517998 -0.0044845957 0.0076577784 -0.004254957 -0.008562795 -0.00047039133 0.0076104063
0.0265673 -0.0010411363 -0.008079842 0.008130542 0.021732723 0.003965322 0.006730246 0.009956951
-0.029319316 0.008525789 0.020795781 -0.002832742 7.645049e-05 0.018264474 -0.016812636 0.009169019
0.023241056 0.009859193 -0.009623529 0.010915606 -0.007990975 0.008185619 0.005635398 -0.0043192185
0.015119607 -0.0039435895 -0.014145071 -0.009653332 0.01606628 -0.0060409144 0.00052029203 0.008630305
0.004936206 0.017310474 -0.0026396953 0.0006225706 -0.0013905902 -0.0086969705 -0.0010747969 0.004299825
0.008928653 0.0077664177 0.0014719282 0.004412589 -0.0079909805 0.01184485 0.03219646 0.007208255
-0.004048174 -0.008546924 -0.011609512 0.0051713227 -0.011146926 0.01353547 0.005042146 0.029397218
-0.00873763 -0.030950943 0.023351414 0.003801003 -0.014305338 0.016672878 0.01563177 0.01730973
0.00432774 -0.0046000285 -0.006199738 0.006337616 0.0114166355 0.004852373 -0.038097855 -0.013076949
-0.007821808 0.008151213 -0.007037747 -0.014247112 -0.03166367 0.011371653 0.017360639 -0.010928117
0.014037631 -0.005538146 0.011901993 -0.01278909 0.0073964237 -0.0028534853 0.0017930554 -0.011231578
-0.00860814 0.022011386 -0.015914489 0.005307596 0.00080658926 -0.019613834 0.017246684 0.00606127
0.009988879 0.008554485 0.0032164422 -0.006137098 -0.003712305 -0.0008272011 -0.00184868 -0.008872489
0.0073228627 -0.0020360996 0.007063857 0.008680324 0.017532405 -0.0043672514 -0.011353248 -0.008324762
00000000: 77dd 0bbc 4c69 86bc 3bda 1bba 3018 1cbc
00000010: d6fe 12bc 86d8 1f3d 6344 763c 77d9 f23b
00000020: eb0d 893c 50c5 683b 84f3 92bb 1aee fa3b
00000030: 2b6d 8bbb f74a 0cbc db9e f6b9 b760 f93b
00000040: aba3 d93c bd76 88ba 5061 04bc f735 053c
00000050: d308 b23c 88ef 813b 6589 dc3b 7b22 233c
00000060: 102f f0bc c0af 0b3c ea5b aa3c 86a5 39bb
00000070: 0b54 a038 619f 953c a7ba 89bc a739 163c
00000080: 0764 be3c 7488 213c 02ac 1dbc 5fd7 323c
00000090: 94ec 02bc f91c 063c 25a9 b83b 3b88 8dbb
000000a0: 3ab8 773c 3a39 81bb bac0 67bc 0229 1ebc
000000b0: 6e9d 833c ddf2 c5bb 3564 083a 1f66 0d3c
000000c0: e6bf a13b b2ce 8d3c bdfe 2cbb 0134 233a
000000d0: 7744 b6ba bd7d 0ebc 33e0 8cba 8ce5 8c3b
000000e0: 7c49 123c 6f7d fe3b b7ed c03a 7b97 903b
000000f0: 9aec 02bc e710 423c 6fe0 033d 3a33 ec3b
00000100: 8ba6 84bb 6608 0cbc d335 3ebc 3374 a93b
00000110: 99a1 36bc e0c3 5d3c 9638 a53b 6fd2 f03c
00000120: 4728 0fbc d58c fdbc 774b bf3c 401a 793b
00000130: f060 6abc 8f95 883c 330e 803c 23cd 8d3c
00000140: b7cf 8d3b d6bb 96bb 2c27 cbbb c7ab cf3b
00000150: d70c 3b3c a800 9f3b 7f0c 1cbd b340 56bc
00000160: 0a27 00bc aa8c 053c e79c e6bb b86c 69bc
00000170: c4b1 01bd 2b50 3a3c e637 8e3c d80b 33bc
00000180: 18fe 653c 5679 b5bb 9400 433c 5589 51bc
00000190: b35d f23b 8a01 3bbb f504 eb3a a704 38bc
000001a0: 2809 0dbc 3951 b43c 1a5f 82bc 58eb ad3b
000001b0: 4a71 533a 31ad a0bc eb48 8d3c 9e9d c63b
000001c0: 65a8 233c 1c28 0c3c f2ca 523b b619 c9bb
000001d0: 254a 73bb 87d8 58ba 684f f2ba eb5d 11bc
000001e0: a0f4 ef3b 1570 05bb ed77 e73b eb37 0e3c
000001f0: 1ea0 8f3c 291b 8fbb f902 3abc 9564 08bc

action_model._discrete_distribution.branches.1.bias f4 [3]
0.0 0.0 0.0
00000000: 0000 0000 0000 0000 0000 0000

action_model._discrete_distribution.branches.1.weight f4 [3, 64]
-0.010591018 -0.00710608 -0.0056922915 -0.008699616 -0.009683502 -0.013431023 0.026609553 -0.0012603869
-0.003822442 -0.004667537 -0.009755376 -0.024595134 -0.008481117 -0.020013144 -0.00060612464 0.0044470713
-0.009094339 0.0058870404 0.00920809 -0.015780164 -0.009395438 0.0070905806 0.011480095 -0.034448985
0.0014742188 0.001875302 0.0041171964 0.0042509665 -0.00033300443 0.00397136 0.0014586941 -0.0011562504
-0.021073747 0.007975846 -0.0075025293 0.014491863 0.005004608 0.0069539594 0.01101732 -0.010052945
-0.004651558 0.0018616265 0.022042332 -0.004782058 0.024142968 -0.00738189 0.011495881 -0.0099680675
-0.005796827 0.008398476 0.0016718481 -0.0069884956 0.005038099 -0.00026494332 -0.006941697 -0.02394546
0.014154888 -7.658262e-05 -0.0033053686 -0.0082662245 0.00439439 0.014732862 0.0022444169 0.0027272282
-0.006777905 0.00500392 0.013125627 -0.014513055 -0.011802158 0.012295761 -0.004976989 -0.014241666
0.0050853896 -0.016029473 0.0034924527 -0.022154963 -0.0065533267 0.011684978 -0.007549055 -0.010991586
0.012065643 0.0052772993 -0.0018878555 0.014603908 -0.010267905 0.02052479 0.008441138 0.0051205866
-0.010886716 0.0012484964 0.0057344185 -0.0031634595 -0.006780566 -0.0007498267 0.004918977 0.001937357
0.011175592 0.005341127 0.020638136 -0.010976874 -0.019464407 -0.0049686613 -0.0028360572 0.008929417
0.00670159 -0.0032995169 0.002298718 0.00030563903 -0.0070620165 -0.006500073 0.006844455 -0.00024487925
-0.004616019 -0.0026567073 -0.00234309 0.011526676 -0.01181639 0.005631819 -0.004392794 0.005891661
-0.00014110224 -0.0005482238 0.0127728 -0.0001021008 0.0019465074 0.0052249306 -0.005317387 -0.019677086
-0.0071446584 -0.008886572 -0.0017212247 0.016048959 -0.007810157 -0.01718949 0.0079289805 0.0027366192
0.00019025835 -0.0072411555 0.0010414395 0.034821406 0.023676766 -0.00030613953 0.021037772 0.0033386785
0.0071257637 0.016994294 -0.0070104273 -0.0011340919 -0.014318249 0.014662877 0.009050938 -0.010642993
-0.0027742884 -0.016025739 0.0025740885 0.0018158207 0.009344444 0.007919866 -3.04553e-05 -0.0040972163
-0.0041754316 -0.008313717 -0.010018176 -0.0061733583 0.012254968 0.009770521 -0.0092916135 -0.01943326
-0.01853688 0.014862922 -0.00093857106 -0.019899152 0.013839168 -0.014878052 -0.024969706 0.0011287063
0.021880371 0.017854482 0.007095934 -0.011269989 0.0070935944 0.0013209846 0.006942955 0.008062645
-0.023388136 0.002787847 -0.007108236 0.0020081592 -0.0046196473 -0.003463296 -0.0139202345 0.024855975
00000000: f385 2dbc 1fda e8bb 6786 babb d688 0ebc
00000010: 8da7 1ebc cb0d 5cbc 47fc d93c 9133 a5ba
00000020: ef81 7abb 23f2 98bb 03d5 1fbc bc7b c9bc
00000030: 62f4 0abc 9bf2 a3bc 56e4 1eba bdb8 913b
00000040: 6c00 15bc 13e8 c03b 87dd 163c 6745 81bc
00000050: 53ef 19bc 1a58 e83b 0217 3c3c 611a 0dbd
00000060: 933a c13a b2cc f53a 8ce9 863b b14b 8b3b
00000070: 1997 aeb9 2f22 823b a731 bf3a 538d 97ba
00000080: daa2 acbc 1fad 023c c7d7 f5bb 476f 6d3c
00000090: b2fd a33b 0ade e33b fd81 343c 1cb5 24bc
000000a0: 196c 98bb d201 f43a 1f92 b43c cfb2 9cbb
000000b0: 79c7 c53c c8e3 f1bb 3859 3c3c 1b51 23bc
000000c0: 4ff3 bdbb c399 093c ea21 db3a c0ff e4bb
000000d0: a316 a53b 17e8 8ab9 2d77 e3bb 4529 c4bc
000000e0: e7e9 673c fb9a a0b8 e29e 58bb 0f6f 07bc
000000f0: d1fe 8f3b 1a62 713c 1117 133b 4cbb 323b
00000100: 3019 debb ecf7 a33b df0c 573c 2ac8 6dbc
00000110: d75d 41bc 2974 493c 0216 a3bb e055 69bc
00000120: 57a3 a63b 3e50 83bc a2e1 643b 537e b5bc
00000130: 4abd d6bb 5a72 3f3c 105e f7bb 0e16 34bc
00000140: faae 453c 32ed ac3b eb71 f7ba 3b45 6f3c
00000150: b73a 28bc 9b23 a83c b34c 0a3c 98ca a73b
00000160: 325e 32bc 96a4 a33a cae7 bb3b 0b52 4fbb
00000170: 832f debb 0590 44ba 5f2f a13b eaee fd3a
00000180: d519 373c 9f04 af3b 4f11 a93c 59d8 33bc
00000190: d273 9fbc 27d0 a2bb 25dd 39bb b04c 123c
000001a0: 0399 db3b b53c 58bb 17a6 163b 2d3e a039
000001b0: 7d68 e7bb 90fe d4bb 7347 e03b 2363 80b9
000001c0: f941 97bb 271c 2ebb 878e 19bb 62da 3c3c
000001d0: 8899 41bc 1f8b b83b 6df1 8fbb d60e c13b
000001e0: d8f4 13b9 adb6 0fba 0245 513c f31e d6b8
000001f0: f321 ff3a e535 ab3b 7a3d aebb d731 a1bc
00000200: bd1d eabb fc98 11bc b89a e1ba 1b79 833c
00000210: 58ec ffbb f9d0 8cbc 8ee8 013c da58 333b
00000220: 1680 4739 3747 edbb e980 883a e4a0 0e3d
00000230: c7f5 c13c 5a81 a0b9 6857 ac3c bbcd 5a3b
00000240: 3d7f e93b 9e37 8b3c bab7 e5bb cfa5 94ba
00000250: 1797 6abc 903c 703c 634a 143c f35f 2ebc
00000260: d6d0 35bb 6948 83bc 0ab2 283b d500 ee3a
00000270: 7019 193c 53c2 013c 427a ffb7 f141 86bb
00000280: 0fd2 88bb 4236 08bc 4723 24bc e249 cabb
00000290: 10c9 483c 8914 203c da3b 18bc 8032 9fbc
000002a0: a8da 97bc 9d83 733c 700a 76ba 8c03 a3bc
000002b0: adbd 623c 13c3 73bc 458d ccbc 19f1 933a
000002c0: 773e b33c 9043 923c 0285 e83b c3a5 38bc
000002d0: 6271 e83b e324 ad3a ba81 e33b 2f19 043c
000002e0: 7a98 bfbc 50b4 363b 35ec e8bb 529b 033b
000002f0: 6960 97bb 77f8 62bb b211 64bc c29e cb3c

network_body.linear_encoder.seq_layers.0.bias f4 [128]
0.0 0.0 0.0 0.0 0.0 0.0 0.0 0.0
0.0 0.0 0.0 0.0 0.0 0.0 0.0 0.0
0.0 0.0 0.0 0.0 0.0 0.0 0.0 0.0
0.0 0.0 0.0 0.0 0.0 0.0 0.0 0.0
0.0 0.0 0.0 0.0 0.0 0.0 0.0 0.0
0.0 0.0 0.0 0.0 0.0 0.0 0.0 0.0
0.0 0.0 0.0 0.0 0.0 0.0 0.0 0.0
0.0 0.0 0.0 0.0 0.0 0.0 0.0 0.0
0.0 0.0 0.0 0.0 0.0 0.0 0.0 0.0
0.0 0.0 0.0 0.0 0.0 0.0 0.0 0.0
0.0 0.0 0.0 0.0 0.0 0.0 0.0 0.0
0.0 0.0 0.0 0.0 0.0 0.0 0.0 0.0
0.0 0.0 0.0 0.0 0.0 0.0 0.0 0.0
0.0 0.0 0.0 0.0 0.0 0.0 0.0 0.0
0.0 0.0 0.0 0.0 0.0 0.0 0.0 0.0
0.0 0.0 0.0 0.0 0.0 0.0 0.0 0.0
00000000: 0000 0000 0000 0000 0000 0000 0000 0000
00000010: 0000 0000 0000 0000 0000 0000 0000 0000
00000020: 0000 0000 0000 0000 0000 0000 0000 0000
00000030: 0000 0000 0000 0000 0000 0000 0000 0000
00000040: 0000 0000 0000 0000 0000 0000 0000 0000
00000050: 0000 0000 0000 0000 0000 0000 0000 0000
00000060: 0000 0000 0000 0000 0000 0000 0000 0000
00000070: 0000 0000 0000 0000 0000 0000 0000 0000
00000080: 0000 0000 0000 0000 0000 0000 0000 0000
00000090: 0000 0000 0000 0000 0000 0000 0000 0000
000000a0: 0000 0000 0000 0000 0000 0000 0000 0000
000000b0: 0000 0000 0000 0000 0000 0000 0000 0000
000000c0: 0000 0000 0000 0000 0000 0000 0000 0000
000000d0: 0000 0000 0000 0000 0000 0000 0000 0000
000000e0: 0000 0000 0000 0000 0000 0000 0000 0000
000000f0: 0000 0000 0000 0000 0000 0000 0000 0000
00000100: 0000 0000 0000 0000 0000 0000 0000 0000
00000110: 0000 0000 0000 0000 0000 0000 0000 0000
00000120: 0000 0000 0000 0000 0000 0000 0000 0000
00000130: 0000 0000 0000 0000 0000 0000 0000 0000
00000140: 0000 0000 0000 0000 0000 0000 0000 0000
00000150: 0000 0000 0000 0000 0000 0000 0000 0000
00000160: 0000 0000 0000 0000 0000 0000 0000 0000
00000170: 0000 0000 0000 0000 0000 0000 0000 0000
00000180: 0000 0000 0000 0000 0000 0000 0000 0000
00000190: 0000 0000 0000 0000 0000 0000 0000 0000
000001a0: 0000 0000 0000 0000 0000 0000 0000 0000
000001b0: 0000 0000 0000 0000 0000 0000 0000 0000
000001c0: 0000 0000 0000 0000 0000 0000 0000 0000
000001d0: 0000 0000 0000 0000 0000 0000 0000 0000
000001e0: 0000 0000 0000 0000 0000 0000 0000 0000
000001f0: 0000 0000 0000 0000 0000 0000 0000 0000

network_body.linear_encoder.seq_layers.0.weight f4 [128, 128]
0.12746635 0.085781634 0.084991366 0.019656762 0.049305025 -0.11695854 0.008317611 0.011609423
0.0443597 0.06558826 0.03301053 0.08235043 -0.05536176 0.113634266 -0.057791483 0.034403846
0.013854302 0.11596623 0.0017860513 0.028600318 0.19352075 0.069645025 -0.03357804 -0.13405874
0.22723477 -0.061895866 0.027181685 -0.13084468 0.03915984 0.08243478 -0.034625135 0.13317929
-0.026149035 -0.0463359 0.05079515 0.0036201712 0.012273857 -0.0325299 -0.024174152 -0.04793854
0.11907693 0.024857324 0.11358406 0.003619971 0.05755121 -0.053417053 0.021159222 0.08413548
-0.048521794 0.032460958 0.01907621 -0.11599311 0.0150153665 0.059210464 -0.111748606 -0.08910048
0.014562694 0.056263413 -0.057536364 0.23362198 0.076893106 0.15312493 0.15875652 -0.10594401
-0.037204064 -0.08389724 -0.029429063 -0.044182856 0.087833434 0.11771939 -0.007918782 -0.077310994
0.08999057 0.025774676 0.115086176 0.08498604 0.15641165 0.08838101 0.04950182 -0.034479383
-0.021083418 0.086342394 0.019966364 -0.055344105 -0.061999608 0.07329239 0.021861643 0.13872822
-0.1025363 0.0044981614 0.049762104 0.08574901 -0.03482036 -0.004303663 -0.2055472 0.10658892
-0.03851472 0.021537617 -0.04504666 -0.06670795 -0.018745003 0.16299506 -0.0037758448 7.803173e-05
-0.032673344 -0.014483037 -0.1272069 -0.09907053 0.14331609 -0.022083275 0.07780983 0.09306392
0.10044918 0.10944765 0.13442124 0.088088796 -0.15714535 -0.029781621 0.046707667 -0.026614536
-0.12704475 0.07893826 -0.03502365 0.011281799 -0.060620096 -0.08808479 -0.09366772 0.014368637
0.03022546 -0.034413695 0.07982218 0.0017069908 0.0071161995 -0.037503455 -0.024007564 0.004665495
0.12545623 0.06295889 0.04009937 -0.09120185 -0.1723672 0.11859569 0.042140182 -0.050849404
0.073792495 0.0633081 0.119485304 -0.07922487 0.040424474 -0.014161544 -0.019634582 0.09772187
0.15403685 0.006064757 -0.031470347 -0.046668716 0.090868965 0.092362255 0.12642159 0.22985436
-0.03362328 -0.015283177 -0.060045138 -0.0680153 0.03240217 0.062184803 -0.055951867 0.039944217
-0.10668581 0.02680086 -0.025767157 0.06774135 0.006355421 -0.09190341 0.012450557 -0.12701342
0.03572683 -0.082056694 0.06008581 0.05627513 -0.10508317 0.13122451 -0.07554909 0.07009423
-0.10619347 0.041772805 0.01636782 -0.042115014 0.062654264 -0.19538344 -0.034456406 0.0145327775
0.052846164 0.10814742 0.10963128 0.008463191 -0.08954505 0.05523906 -0.07062675 -0.10527535
0.10707969 -0.060450904 0.08793234 -0.040270172 0.018834073 -0.026883265 -0.069314346 0.00860237
0.03882628 -0.04724134 -0.12349297 0.10409163 -0.022297746 -0.026885256 0.05035253 -0.027131382
-0.005437761 0.083647415 -0.2586767 0.092355385 -0.06187203 -0.10845611 0.087287135 0.12610622
0.07973638 -0.08411621 -0.020051174 0.1094851 -0.013613917 -0.011450051 -0.026659263 0.0069581266
-0.013847978 0.0157403 -0.035114788 -0.07212246 -0.02682839 -0.1535504 -0.024993442 0.011228586
0.11578857 0.02147509 -0.20747961 0.06410389 -0.1226552 0.024911849 -0.10406219 0.037167605
0.12784113 -0.062460758 -0.019498989 -0.08053602 0.054897882 -0.19025013 0.07763687 -0.12606809
00000000: 8a86 023e 48ae af3d f40f ae3d 3807 a13c
00000010: 11f4 493d f687 efbd 9746 083c 7335 3e3c
00000020: 84b2 353d 2353 863d 0d36 073d 58a7 a83d
00000030: 03c3 62bd 15b9 e83d c3b6 6cbd 0ceb 0c3d
00000040: 27fd 623c b47f ed3d f019 ea3a 374b ea3c
00000050: 4e2a 463e 0da2 8e3d 2089 09bd b246 09be
00000060: 3bb0 683e 8586 7dbd 20ac de3c 26fc 05be
00000070: 1266 203d 91d3 a83d 16d3 0dbd 2760 083e
00000080: 8036 d6bc b6ca 3dbd 930e 503d 6540 6d3b
00000090: 4a18 493c 133e 05bd df08 c6bc 345b 44bd
000000a0: 9bde f33d 96a1 cb3c c29e e83d 093d 6d3b
000000b0: d1ba 6b3d d7cb 5abd 1b56 ad3c 394f ac3d
000000c0: cabe 46bd c8f5 043d b645 9c3c cc8d edbd
000000d0: 0303 763c ac86 723d 74dc e4bd 507a b6bd
000000e0: 5e98 6e3c 7774 663d 40ab 6bbd 9a3a 6f3e
000000f0: 227a 9d3d c8cc 1c3e 1291 223e 2cf9 d8bd
00000100: 4a63 18bd 51d2 abbd 3815 f1bc 15f9 34bd
00000110: 04e2 b33d dd16 f13d c7bd 01bc 3a55 9ebd
00000120: fa4c b83d 6a25 d33c 4db2 eb3d 290d ae3d
00000130: 602a 203e 1a01 b53d 6cc2 4a3d 413a 0dbd
00000140: 22b7 acbc 48d4 b03d 8090 a33c 80b0 62bd
00000150: 4df3 7dbd 521a 963d 3017 b33c c50e 0e3e
00000160: 8dfe d1bd 5065 933b 59d3 4b3d 2d9d af3d
00000170: cb9f 0ebd be05 8dbb f77a 52be 4b4b da3d
00000180: 9cc1 1dbd a86f b03c d982 38bd 2d9e 88bd
00000190: 1f8f 99bc 2de8 263e 2a74 77bb f7a4 a338
000001a0: 7cd4 05bd 434a 6dbc 8742 02be 7de5 cabd
000001b0: 74c1 123e fce7 b4bc c35a 9f3d 4c98 be3d
000001c0: 4db8 cd3d 1726 e03d b9a5 093e e667 b43d
000001d0: b6ea 20be 96f8 f3bc 8a50 3f3d ba06 dabc
000001e0: 0518 02be 62aa a13d f574 0fbd 4bd7 383c
000001f0: c74c 78bd cc65 b4bd ddd4 bfbd 6f6a 6b3c
00000200: 629b f73c 60f5 0cbd d079 a33d 1bbd df3a
00000210: 022f e93b 399d 19bd 83ab c4bc 02e1 983b
00000220: 9977 003e 97f0 803d 3d3f 243d 09c8 babd
00000230: 0781 30be 4ce2 f23d 2f9b 2c3d 7747 50bd
00000240: 8520 973d ada7 813d b6b4 f43d a640 a2bd
00000250: 2294 253d d205 68bc b4d8 a0bc 6722 c83d
00000260: d6bb 1d3e deba c63b 0de7 00bd b227 3fbd
00000270: 8219 ba3d 6c28 bd3d a974 013e f15e 6b3e
00000280: 90b8 09bd 4a66 7abc e4f1 75bd 9b4b 8bbd
00000290: 23b8 043d 7eb5 7e3d c92d 65bd 8c9c 233d
000002a0: 177e dabd 7a8d db3c a515 d3bc fabb 8a3d
000002b0: 2341 d03b db37 bcbd 6cfd 4b3c ce0f 02be
000002c0: 4c56 123d 570d a8bd 8a1c 763d c080 663d
000002d0: d835 d7bd b85f 063e 7bb9 9abd 908d 8f3d
000002e0: f67b d9bd f619 2b3d ce15 863c cb80 2cbd
000002f0: e150 803d 9912 48be 2922 0dbd e31a 6e3c
00000300: 3875 583d 657c dd3d 5d86 e03d 32a9 0a3c
00000310: 6563 b7bd 5a42 623d c2a4 90bd 9a9a d7bd
00000320: 994c db3d 5e9b 77bd df15 b43d 56f2 24bd
00000330: ea49 9a3c 4b3a dcbc aef4 8dbd f4f0 0c3c
00000340: 4e08 1f3d 2380 41bd e2e9 fcbd fe2d d53d
00000350: c3a9 b6bc 783e dcbc 743e 4e3d a242 debc
00000360: 3f2f b2bb 564f ab3d 4671 84be d224 bd3d
00000370: 876d 7dbd 3d1e debd 99c3 b23d fd21 013e
00000380: d44c a33d 1f45 acbd 5c42 a4bc b939 e03d
00000390: e80c 5fbc ff98 3bbc 8764 dabc ff00 e43b
000003a0: a1e2 62bc cdf1 803c 86d4 0fbd f1b4 93bd
000003b0: 36c7 dbbc 513c 1dbe 0cbf ccbc 1af8 373c
000003c0: 8f22 ed3d 87ec af3c 8975 54be e648 833d
000003d0: a632 fbbd ef13 cc3c 8f1e d5bd 0f3d 183d
000003e0: c9e8 023e dad6 7fbd 58bc 9fbc 12f0 a4bd
000003f0: 9adc 603d eed0 42be 1400 9f3d fe17 01be

network_body.linear_encoder.seq_layers.2.bias f4 [128]
0.0 0.0 0.0 0.0 0.0 0.0 0.0 0.0
0.0 0.0 0.0 0.0 0.0 0.0 0.0 0.0
0.0 0.0 0.0 0.0 0.0 0.0 0.0 0.0
0.0 0.0 0.0 0.0 0.0 0.0 0.0 0.0
0.0 0.0 0.0 0.0 0.0 0.0 0.0 0.0
0.0 0.0 0.0 0.0 0.0 0.0 0.0 0.0
0.0 0.0 0.0 0.0 0.0 0.0 0.0 0.0
0.0 0.0 0.0 0.0 0.0 0.0 0.0 0.0
0.0 0.0 0.0 0.0 0.0 0.0 0.0 0.0
0.0 0.0 0.0 0.0 0.0 0.0 0.0 0.0
0.0 0.0 0.0 0.0 0.0 0.0 0.0 0.0
0.0 0.0 0.0 0.0 0.0 0.0 0.0 0.0
0.0 0.0 0.0 0.0 0.0 0.0 0.0 0.0
0.0 0.0 0.0 0.0 0.0 0.0 0.0 0.0
0.0 0.0 0.0 0.0 0.0 0.0 0.0 0.0
0.0 0.0 0.0 0.0 0.0 0.0 0.0 0.0
00000000: 0000 0000 0000 0000 0000 0000 0000 0000
00000010: 0000 0000 0000 0000 0000 0000 0000 0000
00000020: 0000 0000 0000 0000 0000 0000 0000 0000
00000030: 0000 0000 0000 0000 0000 0000 0000 0000
00000040: 0000 0000 0000 0000 0000 0000 0000 0000
00000050: 0000 0000 0000 0000 0000 0000 0000 0000
00000060: 0000 0000 0000 0000 0000 0000 0000 0000
00000070: 0000 0000 0000 0000 0000 0000 0000 0000
00000080: 0000 0000 0000 0000 0000 0000 0000 0000
00000090: 0000 0000 0000 0000 0000 0000 0000 0000
000000a0: 0000 0000 0000 0000 0000 0000 0000 0000
000000b0: 0000 0000 0000 0000 0000 0000 0000 0000
000000c0: 0000 0000 0000 0000 0000 0000 0000 0000
000000d0: 0000 0000 0000 0000 0000 0000 0000 0000
000000e0: 0000 0000 0000 0000 0000 0000 0000 0000
000000f0: 0000 0000 0000 0000 0000 0000 0000 0000
00000100: 0000 0000 0000 0000 0000 0000 0000 0000
00000110: 0000 0000 0000 0000 0000 0000 0000 0000
00000120: 0000 0000 0000 0000 0000 0000 0000 0000
00000130: 0000 0000 0000 0000 0000 0000 0000 0000
00000140: 0000 0000 0000 0000 0000 0000 0000 0000
00000150: 0000 0000 0000 0000 0000 0000 0000 0000
00000160: 0000 0000 0000 0000 0000 0000 0000 0000
00000170: 0000 0000 0000 0000 0000 0000 0000 0000
00000180: 0000 0000 0000 0000 0000 0000 0000 0000
00000190: 0000 0000 0000 0000 0000 0000 0000 0000
000001a0: 0000 0000 0000 0000 0000 0000 0000 0000
000001b0: 0000 0000 0000 0000 0000 0000 0000 0000
000001c0: 0000 0000 0000 0000 0000 0000 0000 0000
000001d0: 0000 0000 0000 0000 0000 0000 0000 0000
000001e0: 0000 0000 0000 0000 0000 0000 0000 0000
000001f0: 0000 0000 0000 0000 0000 0000 0000 0000

network_body.linear_encoder.seq_layers.2.weight f4 [128, 128]
-0.016885277 0.03906912 0.023869133 0.00957562 0.008266894 -0.0674509 -0.03788345 -0.1043327
-0.051374957 -0.07451947 -0.01615319 0.060837094 0.08874474 -0.07556145 -0.044767734 -0.013112677
0.047250256 -0.004227206 -0.07773897 -0.014339953 0.06365567 2.6712787e-05 -0.064747095 -0.06486057
0.092544354 -0.05251924 0.14768893 0.04540958 -0.098092675 0.115054056 -0.03639907 -0.15302154
0.12473191 0.067444675 -0.032808904 -0.07163165 -0.13821793 0.03984 -0.02983177 -0.016776113
0.0839417 0.09672004 0.0019875153 -0.12590772 0.014566845 -0.09000158 0.09567054 0.119986035
0.022698756 -0.025944935 -0.010654456 -0.07634113 -0.062750734 0.008520594 0.03263419 0.11363823
-0.09931979 -0.041141365 -0.07220081 -0.048271224 -0.008060334 -0.20633641 -0.1466491 0.022739505
-0.24451587 0.09872421 -0.005016388 -0.17292266 0.2082117 -0.083847575 0.12948132 -0.060871348
-0.028040355 -0.22845992 -0.047524408 -0.041509073 0.05945032 0.07369196 0.0010325063 -0.092896044
0.043207202 0.06306889 0.028514642 -0.034891114 0.014238145 0.19407167 -0.19181423 0.10269476
-0.0040900353 -0.11894911 0.08445949 0.063808955 -0.07466176 -0.01703797 0.06145221 0.011370726
-0.14865607 0.06604635 0.11468423 -0.054605834 0.054207414 -0.13928904 0.04694134 0.08713808
0.07286754 0.04707049 -0.14695889 0.05058536 -0.058493823 -0.1811818 -0.1161285 -0.14814301
0.09129864 0.0025158874 0.0063655274 -0.08330312 0.062752254 0.08478928 0.011977204 0.18161029
0.015775047 -0.09564092 0.0629365 -0.13070066 0.07725098 -0.028785612 0.072012134 0.0589154
-0.08270757 0.05175736 -0.14691666 0.035170265 0.08488053 0.037628647 0.13328283 -0.061942767
-0.064390235 0.13117722 0.028309723 -0.043436237 -0.024915585 0.18129614 0.013209469 0.0024751646
0.04008732 -0.04306518 -0.09124186 -0.034152348 0.03800539 0.09194853 0.027828405 -0.028147245
-0.019873895 0.057306256 -0.027955325 0.030423194 -0.11340977 -0.09530359 0.14705013 -0.037400894
0.14488254 -0.050685566 0.034684863 0.06503499 -0.04371673 0.09896215 -0.043365475 -0.016104482
-0.0035014194 -0.21236295 0.019334478 -0.04170333 -0.03880562 -0.035092488 0.1515868 -0.086115174
-0.0066727754 0.03849879 0.020189743 -0.15768978 0.006767373 0.082872614 0.015229076 0.04265456
-0.10734961 -0.24959257 0.065793276 -0.17973259 0.063194156 -0.0760002 0.01328915 -0.10174246
0.12981728 -0.03909962 -0.015692014 -0.12117359 -0.0837172 0.15173884 0.11624598 0.08470668
0.07897179 -0.17139773 -0.047798976 0.04518224 -0.0018594427 0.05834283 -0.064343594 -0.018112054
0.04285922 0.049446 -0.03884474 -0.1380262 0.062120914 -0.17922372 0.10840328 0.0037201461
0.11941048 0.08077743 -0.20042318 0.059350833 -0.03933751 -0.057461325 0.08705465 0.040549546
0.039536655 -0.037213728 -0.04686029 0.0676346 0.14654723 0.06334576 -0.003681619 -0.060504314
0.007867978 0.058173165 -0.013990246 0.010229082 -0.16683179 -0.015156988 0.09731869 -0.013985479
-0.0032829305 0.12358688 0.13661255 0.024103485 -0.014160245 0.022995044 0.059401277 0.023635907
0.07860131 -0.040021826 0.01685516 -0.0012693761 0.031841945 0.009577265 0.17108618 -0.05262875
00000000: fe52 8abc f106 203d 3389 c33c 10e3 1c3c
00000010: de71 073c b323 8abd ad2b 1bbd 62ac d5bd
00000020: 8c6e 52bd aa9d 98bd b253 84bc 5130 793d
00000030: cdbf b53d f6bf 9abd 5f5e 37bd 8ed6 56bc
00000040: 7c89 413d 6084 8abb 9c35 9fbd 1ff2 6abc
00000050: e75d 823d 4615 e037 209a 84bd 9ed5 84bd
00000060: e587 bd3d 6a1e 57bd c43b 173e 65ff 393d
00000070: d0e4 c8bd 76a1 eb3d 3117 15bd aeb1 1cbe
00000080: 7273 ff3d 6f20 8a3d a162 06bd 9db3 92bd
00000090: 0089 0dbe 452f 233d c261 f4bc 0f6e 89bc
000000a0: a0e9 ab3d 2815 c63d f940 023b f4ed 00be
000000b0: c7a9 6e3c c052 b8bd ebee c33d 3dbb f53d
000000c0: bef2 b93c 798a d4bc 0790 2ebc bd58 9cbd
000000d0: 7583 80bd f699 0b3c 6eab 053d 29bb e83d
000000e0: 2d68 cbbd d983 28bd 05de 93bd 0cb8 45bd
000000f0: 7e0f 04bc da49 53be 2f2b 16be 3348 ba3c
00000100: 5e62 7abe eb2f ca3d 8360 a4bb a312 31be
00000110: 7335 553e 47b8 abbd c096 043e 3c54 79bd
00000120: e3b4 e5bc 66f1 69be f4a8 42bd 6b05 2abd
00000130: 2e82 733d cfeb 963d 2a55 873a 4840 bebd
00000140: 09fa 303d 432a 813d 8a97 e93c fce9 0ebd
00000150: 1c47 693c b9ba 463e f36a 44be a151 d23d
00000160: b405 86bb 979b f3bd 19f9 ac3d 45ae 823d
00000170: 44e8 98bd 3693 8bbc 50b5 7b3d 484c 3a3c
00000180: 4c39 18be 4f43 873d 91df ea3d 5eaa 5fbd
00000190: 9808 5e3d c9a1 0ebe 9045 403d 7375 b23d
000001a0: 943b 953d fccc 403d 647c 16be 9832 4f3d
000001b0: 3897 6fbd b987 39be c7d4 edbd cdb2 17be
000001c0: c8fa ba3d 96e1 243b ea95 d03b d49a aabd
000001d0: 4184 803d 01a6 ad3d 093c 443c 0cf8 393e
000001e0: ac3a 813c 63df c3bd dae4 803d 65d6 05be
000001f0: c335 9e3d cecf ebbc 197b 933d 4651 713d
00000200: 9662 a9bd 87ff 533d 5271 16be b20e 103d
00000210: d8d5 ad3d 7f20 1a3d 4b7b 083e b3b7 7dbd
00000220: 07df 83bd 5253 063e cbe9 e73c 32ea 31bd
00000230: c51b ccbc b2a5 393e 876c 583c 5f36 223b
00000240: 9a32 243d 1d65 30bd 03dd babd 55e3 0bbd
00000250: 8aab 1b3d 834f bc3d 65f8 e33c 0d95 e6bc
00000260: 94ce a2bc f7b9 6a3d 9102 e5bc 103a f93c
00000270: 6243 e8bd 872e c3bd 4f94 163e ae31 19bd
00000280: 175c 143e ab9b 4fbd b711 0e3d 1131 853d
00000290: 5010 33bd abac ca3d ff9f 31bd 8ced 83bc
000002a0: 1278 65bb ac75 59be 5763 9e3c 1cd1 2abd
000002b0: a4f2 1ebd 24bd 0fbd 9239 1b3e 275d b0bd
000002c0: 4ca7 dabb e8b0 1d3d f664 a53c 6e79 21be
000002d0: d7c0 dd3b 1eb9 a93d 6083 793c 8cb6 2e3d
000002e0: 1dda dbbd 3295 7fbe a0be 863d d20b 38be
000002f0: f06b 813d fea5 9bbd bcba 593c 5a5e d0bd
00000300: d2ee 043e ec26 20bd 8a8c 80bc dc29 f8bd
00000310: ec73 abbd 6d61 1b3e 5f12 ee3d b27a ad3d
00000320: f6bb a13d e382 2fbe dcc8 43bd 0311 393d
00000330: 8bb8 f3ba e4f8 6e3d 93c6 83bd bb5f 94bc
00000340: 268d 2f3d e487 4a3d a91b 1fbd bd56 0dbe
00000350: 8072 7e3d 6c86 37be 8a02 de3d b2cd 733b
00000360: 7b8d f43d a36e a53d bc3b 4dbe dc19 733d
00000370: 5e20 21bd 915c 6bbd b549 b23d 4817 263d
00000380: 30f1 213d 6c6d 18bd 93f0 3fbd 0284 8a3d
00000390: 7a10 163e 6cbb 813d 5147 71bb 5fd3 77bd
000003a0: b1e8 003c fc46 6e3d 5837 65bc e197 273c
000003b0: f4d5 2abe 0455 78bc 054f c73d 5a23 65bc
000003c0: 6f26 57bb 1e1b fd3d 29e4 0b3e ac74 c53c
000003d0: 5f00 68bc 1a60 bc3c c14e 733d 17a0 c13c
000003e0: b9f9 a03d eded 23bd d513 8a3c 3261 a6ba
000003f0: b36c 023d f6e9 1c3c 3731 2f3e 3f91 57bd

network_body.observation_encoder.processors.0.conv_layers.0.bias f4 [16]
0.015091576 0.013633467 0.002755843 0.038660273 -0.050154604 0.009825192 -0.03214443 0.0012731329
0.023872033 0.03516639 -0.028234541 -0.02934264 0.029211223 -0.0052215084 0.03850594 0.065637246
00000000: a842 773c e85e 5f3c 609b 343b 3c5a 1e3d
00000010: ea6e 4dbd d8f9 203c e1a9 03bd 40df a63a
00000020: 488f c33c a20a 103d 204c e7bc fa5f f0bc
00000030: 604c ef3c 3019 abbb 68b8 1d3d d26c 863d

network_body.observation_encoder.processors.0.conv_layers.0.weight f4 [16, 3, 8, 8]
0.06300022 -0.044934034 -0.051371768 0.05038576 0.05319698 0.035129204 -0.031352136 0.018359326
0.017631575 0.03188555 0.042002074 0.037848465 0.071369424 0.052013293 -0.06375399 -0.042836588
0.0043397173 0.04407487 0.06356056 0.024579406 0.00987754 0.04781822 -0.014436152 -0.028206598
-0.042229872 0.057875052 0.061331615 -0.04270095 -0.013986204 -0.043145835 -0.051349528 0.05866097
0.020983413 -0.05989526 0.05988325 -0.06672114 0.04429943 0.0018908456 0.027854495 -0.021530092
-0.049988575 0.041771494 0.05113271 0.07093176 -0.015617721 0.06734528 0.011351459 -0.014512461
-0.012038004 -0.023843221 0.041753925 0.03584528 0.056180596 0.017186128 0.060480118 -0.008154742
-0.049497306 0.050557785 -0.021283068 -0.045399144 -0.027659494 -0.054500595 -0.03867093 -0.002886407
0.009420484 -0.060699053 0.06723468 0.023330182 0.054848805 -0.028539155 0.011844203 -0.009404093
-0.050591726 -0.038722835 -0.058622036 0.0015309602 -0.013114184 0.054160535 0.017360076 0.011057816
0.027858958 -0.035120267 -0.067853786 -0.025855415 -0.023677371 0.011337712 0.05786909 0.038126953
0.035382167 0.0056815892 -0.044811778 -0.031668615 -0.006204687 -0.011833772 -0.02317055 0.018687747
-0.024386369 0.053484395 0.0574791 -0.037376065 -0.068147354 -0.059802465 -0.031177528 -0.004445538
0.03143423 -0.0401792 -0.016480673 -0.03676763 -0.027348842 0.05889468 -0.035469055 0.055743784
-0.03060633 0.024057813 0.03589455 -0.06342389 -0.06795219 -0.06950503 0.029315792 0.058843628
-0.041305263 -0.043165505 0.016667992 0.06144111 0.043020606 -0.04040326 -0.035366368 -0.040342048
0.065982506 -0.03987321 -0.023963425 0.008966759 -0.0004946813 0.06654215 -0.043036886 0.05503753
0.03121581 -0.058125764 -0.04224719 -0.06767699 -0.053146303 -0.050922863 -0.030301776 0.01797337
-0.0066893175 -0.07049848 0.0502086 -0.046466447 0.010752663 0.03724215 -0.011432633 0.04315628
-0.048558533 0.019513234 -0.0006666407 0.014342651 -0.02461873 -0.0010509938 -0.04254055 -0.06561063
-0.031370256 -0.002634406 -0.04161533 -0.05465423 -0.00028512627 -0.01688449 -0.063938215 -0.013614368
-0.037135564 -0.0050648525 0.008788437 0.042640418 0.054809466 0.059384763 -0.0044058934 0.05447203
-0.028534096 -0.019265827 -0.041000858 0.053847298 0.012092471 0.051082812 -0.059247267 0.038709834
-0.036747303 0.070006415 -0.014352106 0.0680953 -0.023631867 0.052809455 0.021365486 0.024217479
0.07051119 0.0011179671 0.015216172 0.049112417 -0.05725094 0.0068265423 -0.0052733645 -0.042006526
0.010485336 -0.033003625 0.070889026 -0.021518607 0.0042937174 -0.0630175 0.064368665 0.06459656
0.04040143 -0.06607766 0.07053666 0.053205937 -0.018976666 -0.041978486 0.038951486 0.04189355
0.01944036 -0.017639797 -0.0460203 -0.011663791 0.022073038 -0.030958697 0.051750205 -0.07102986
0.009956814 -0.06578009 0.049624838 0.04720567 -0.059893064 0.06575343 0.02830483 0.06478676
0.03923575 0.017697215 0.047738247 0.03418182 0.043211482 0.024077438 -0.05904462 0.02864343
-0.045127325 0.037282176 -0.06259847 -0.028802909 -0.06191857 0.023441948 0.017216325 0.060614705
0.007100217 -0.0058100447 0.020442948 -0.010539241 -0.072044566 0.007231869 0.031468958 -0.039966658
00000000: 4206 813d c00c 38bd 346b 52bd 4c61 4e3d
00000010: 14e5 593d a4e3 0f3d 196b 00bd 4c66 963c
00000020: 1870 903c 6c9a 023d 5e0a 2c3d fe06 1b3d
00000030: 222a 923d e40b 553d 7491 82bd 6b75 2fbd
00000040: 3034 8e3b da87 343d 0a2c 823d c05a c93c
00000050: 68d5 213c 0add 433d 9c85 6cbc 8611 e7bc
00000060: 3bf9 2cbd 640e 6d3d dc36 7b3d 31e7 2ebd
00000070: 6426 65bc b0b9 30bd e253 52bd 7c46 703d
00000080: 68e5 ab3c bb54 75bd 2448 753d 18a5 88bd
00000090: 5273 353d 40d6 f73a 1c2f e43c e05f b0bc
000000a0: d2c0 4cbd 9618 2b3d 8870 513d ac44 913d
000000b0: 78e1 7fbc 52ec 893d 78fb 393c acc5 6dbc
000000c0: 0c3b 45bc dc52 c3bc 2a06 2b3d 80d2 123d
000000d0: a01d 663d ecc9 8c3c 00ba 773d 789b 05bc
000000e0: b0bd 4abd ae15 4f3d d459 aebc 74f4 39bd
000000f0: 2a96 e2bc 043c 5fbd 6965 1ebd e029 3dbb
00000100: 6058 1a3c 929f 78bd 56b2 893d f01e bf3c
00000110: 24a9 603d f2ca e9bc 300e 423c a013 1abc
00000120: 4539 4fbd d69b 1ebd a91d 70bd 80aa c83a
00000130: e0dc 56bc 70d7 5d3d b836 8e3c d82b 353c
00000140: 7838 e43c 45da 0fbd edf6 8abd bcce d3bc
00000150: 0cf7 c1bc d0c1 393c 2408 6d3d 022b 1c3d
00000160: e4ec 103d a02c ba3b 8e8c 37bd f3b6 01bd
00000170: b050 cbbb 70e2 41bc 2ad0 bdbc 0c17 993c
00000180: ecc5 c7bc 7412 5b3d 346f 6b3d a517 19bd
00000190: d790 8bbd 6ef3 74bd 0468 ffbc e0ab 91bb
000001a0: 2ec1 003d f292 24bd 7a02 87bc a899 16bd
000001b0: ae0a e0bc 8c3b 713d 0048 11bd 9853 643d
000001c0: 20ba fabc e414 c53c 2a06 133d 62e4 81bd
000001d0: 852a 8bbd a758 8ebd ac27 f03c 0406 713d
000001e0: b52f 29bd 50ce 30bd 508b 883c aca9 7b3d
000001f0: 6036 303d e47d 25bd 53dc 10bd b43d 25bd
00000200: d621 873d 1752 23bd f24e c4bc 50e9 123c
00000210: 80ad 01ba 4047 883d 7247 30bd 086f 613d
00000220: 4cb8 ff3c 4815 6ebd 640b 2dbd 3c9a 8abd
00000230: f0af 59bd 7e94 50bd 6e3b f8bc e43c 933c
00000240: 1032 dbbb 8261 90bd 88a7 4d3d 9a53 3ebd
00000250: f02b 303c 3a8b 183d f04f 3bbc a4c4 303d
00000260: 50e5 46bd 38da 9f3c 80c1 2eba 70fd 6a3c
00000270: 38ad c9bc 80c1 89ba 003f 2ebd de5e 86bd
00000280: 197e 00bd 00a6 2cbb d674 2abd 1ddd 5fbd
00000290: 007d 95b9 5851 8abc 0af2 82bd cc0e 5fbc
000002a0: 761b 18bd 10f7 a5bb 60fd 0f3c b8a7 2e3d
000002b0: e47f 603d 703d 733d 505f 90bb 101e 5f3d
000002c0: 56c0 e9bc 5ed3 9dbc 84f0 27bd fc8e 5c3d
000002d0: 801f 463c 363c 513d 43ad 72bd 348e 1e3d
000002e0: 5784 16bd 865f 8f3d 1825 6bbc 8c75 8b3d
000002f0: 9e97 c1bc ba4e 583d ac06 af3c bc63 c63c
00000300: 2c68 903d c088 923a 404d 793c 1a2a 493d
00000310: f67f 6abd 30b1 df3b 30cc acbb 090f 2cbd
00000320: b0ca 2b3c cf2e 07bd 442e 913d ca47 b0bc
00000330: 50b2 8c3b 520f 81bd b8d3 833d 344b 843d
00000340: f87b 253d b953 87bd 8675 903d 78ee 593d
00000350: f474 9bbc a2f1 2bbd 988b 1f3d 9298 2b3d
00000360: 6441 9f3c 5681 90bc c87f 3cbd 7c19 3fbc
00000370: 84d2 b43c 189d fdbc 06f8 533d 1a78 91bd
00000380: e821 233c b6b7 86bd 6a43 4b3d bc5a 413d
00000390: 6e52 75bd bca9 863d 88df e73c ecae 843d
000003a0: aab5 203d c0f9 903c 2e89 433d 3c02 0c3d
000003b0: 86fe 303d 0c3e c53c c5d8 71bd a0a5 ea3c
000003c0: 6ed7 38bd 32b5 183d a033 80bd 14f4 ebbc
000003d0: 549e 7dbd 5409 c03c 4009 8d3c 2047 783d
000003e0: f0a8 e83b 3062 bebb f877 a73c c8ac 2cbc
000003f0: 1a8c 93bd 50f9 ec3b 98e5 003d 14b4 23bd

network_body.observation_encoder.processors.0.conv_layers.2.bias f4 [32]
0.057260633 0.033414908 -0.034604132 -0.034034148 -0.0041504577 -0.03300576 -0.04049205 -0.038420185
-0.0068651736 0.0018296167 0.03355208 0.042954296 -0.056820273 0.04232011 -0.044714637 -0.0087866485
0.0140070245 0.05235225 0.008344881 0.0069661066 -0.011501893 -0.009293005 0.035852 -0.058448054
-0.058425978 -0.012159035 -0.029432192 -0.00085416436 0.01368504 0.056256846 0.03292349 -0.036589533
00000000: 208a 6a3d 12de 083d 10bd 0dbd 6467 0bbd
00000010: 9000 88bb 0c31 07bd feda 25bd 7c5e 1dbd
00000020: 40f5 e0bb c0cf ef3a e86d 093d d8f0 2f3d
00000030: 60bc 68bd da57 2d3d b226 37bd e0f5 0fbc
00000040: b87d 653c 506f 563d f8b8 083c f043 e43b
00000050: 7072 3cbc b041 18bc 8cd9 123d 3a67 6fbd
00000060: 1450 6fbd b036 47bc c81b f1bc 00ea 5fba
00000070: 3837 603c 946d 663d c8da 063d e8de 15bd
