Tests/Editor/TestModels/hybrid0vis53vec_3c_2daction_v1_0.onnx (onnx, 99363 bytes, 9 tensors)

54 f4 [1, 3]
00000000: 0000 0000 0000 0000 0000 0000
0.0 0.0 0.0

action_model._distributions.0.mu.bias f4 [3]
00000000: 0000 0000 0000 0000 0000 0000
0.0 0.0 0.0

action_model._distributions.0.mu.weight f4 [3, 128]
00000000: 1a5b c53c 410a 213c 3d11 eebb 1136 873c
00000010: f234 11bc fd14 813c faa6 92bb a0b7 2ebc
00000020: 931a 8f3b f84a bcbb 53ab 973b 72d1 c9bb
00000030: 3419 82bc b20f 6e3c 6700 833c 07a1 2bbc
00000040: cb6f 7fbb 27dd 78bb 0507 bc3c d33b 9fba
00000050: 2783 9cbc eb73 303c 6ea1 8d3c f392 ec3b
00000060: efc1 3d3b e622 83bc 7806 38bb 71a5 9d3b
00000070: 5509 d6bb 32da 593b 92ff e4bb 7b29 2abc
00000080: 228f 7abc 9369 203c ca37 a2bc b203 cabc
00000090: 3a95 ebbb 00b8 fd3b 4275 313c 1dce b13b
000000a0: 4a0d d43b 6832 0d3c 1e18 8e3c 5d1e 013d
000000b0: b7b4 a73c 73eb 7fb9 936f 5bbc df3f a7bc
000000c0: b32b f13b 848b 1339 d74f 3b39 d7d5 6fbc
000000d0: 57b0 a13c cb0c 883c 17d3 483c 7798 a0bc
000000e0: c7cd 453c d5fb a0bc 8fa4 8a3b fbd7 85bb
000000f0: b079 8bbc a5b0 9bbb fe63 26bc daf7 8a3c
00000100: bd00 52bb 8da9 6abc 8766 4fbc 30cd 043c
00000110: d38c b1bc ec86 afba ed24 19bb a336 253b
00000120: 02fa 113c bd9a 1d3c 3fd6 2e3c 3726 f0bb
00000130: 044e 1f3b 8e27 c1bb ddaa 7fbc 76e8 1cbc
00000140: 3fdd febb 980b 69ba c600 9abb 332d 36bc
00000150: cadb 4a3c 0f6d 30bc 8275 6fbc 2a4a aebb
00000160: 08ef 9b3c 47d2 afbb ee24 02bb d61a a03c
00000170: b3ee 0c3b f6f2 363b a549 bdbc 7437 a53c
00000180: 4a24 59bc 39ed 133b e00d b6bc e191 a0bb
00000190: c383 97bc f3c7 85bb d5a8 2cbb 7856 ab3c
000001a0: f28f 143c 38ea 673b e003 f7b9 0525 58bc
000001b0: e9c4 2ebc 0281 873c 50e5 77bc 5a81 533c
000001c0: 4433 843b 2ef9 a8bc 3e8a 0e3c f5af 2e3c
000001d0: 13f4 11bb f72b 75bb 1fa8 d63c 6a19 eebb
000001e0: 174f 9f3b 87a3 9fbb c3dd ae3c c732 a53b
000001f0: 45d3 6b3c d60a b4bb 01b7 293c 1f4d 293c
00000200: 4004 feba c39a 06bd 670b 193c 12a9 67bb
00000210: 1acc 043b 6308 303a 31cf 28bb c5fb 3fbc
00000220: 1895 d43b 20bb 4bbb 2c09 ccba c73d 983c
00000230: fb4a a23a b291 56bb d3e1 553b 7fff 0c3b
00000240: be3c 28bc 977e c3bc 6d50 93bc 9b3d 8fb9
00000250: 1857 70bc 7232 18bc 279d 2dbb 9f17 873b
00000260: 2f75 7a3c e2f8 eabc 5a43 d43c c34f 03bc
00000270: 2323 0c3c 80b4 09bc b347 9fbc 02d9 65bc
00000280: 357f 73bc 5fce 943c 55b4 703c 484c 15bc
00000290: e95f 98bb 77ca 6c3a 80c9 f23b 6f16 2e3b
000002a0: b4d8 2d3c c881 d23b 2738 87bb b516 1b3c
000002b0: 8c5c b3bb 7df5 8e3b 1b72 2cbb 344a 013a
000002c0: 3a62 50bb 5bd6 063c 9046 6a3c 7790 d3bc
000002d0: e0de 71bc 1358 1dbc bb19 1dbd 6676 0ebc
000002e0: 0743 823c cb9b 4bbb a696 93bc e8ce ab3b
000002f0: 772a 52bc 0acc 84bc f888 34bb 27f3 0ebc
00000300: 7d5a d537 c77a 53bc 583d 983c b96f 13bb
00000310: 3765 adbc 305b 6a3c cfd4 2d3c 5896 42bb
00000320: cbee 5a3b 699a 9cbb 33d9 1cbc c7a7 d63b
00000330: 7e47 a9bb 003c 11bc 23bd 703c af9f d13c
00000340: 1753 e0bb 5b11 93bb d345 dbb9 2eec aa3b
00000350: 877b 643b 4ad0 c23c 33e1 3739 2ff1 4d3c
00000360: 7b34 68bc bfda e6bb bdbe 1ebc 475a 063c
00000370: 5fb7 3cbb a533 a2bb 9a46 7cbc 9dbc 963c
00000380: 7c4b 0abd 31a1 123c 4332 84bb 3f2d 74bb
00000390: f683 a73b 547b 19bc 3bce 183d 48f0 e8bb
000003a0: 0bb1 7abc a0f7 683b 1aff 62bc d40a 8aba
000003b0: bfbb 29bb a2d2 67bb a235 ae3c 66ca 073c
000003c0: 6057 8fbb 17ef 133c 24f4 2a3c 7d48 c03c
000003d0: 0365 0cbc 6c89 1aba 326c 16bc 53ab 273c
000003e0: cf57 593b b2e5 5ebb a0e3 a4bb c082 1e3c
000003f0: c2fc 05ba 46b8 b6bb 13c3 de3c f7d5 623b
0.024091292 0.009829105 -0.0072652386 0.016505273 -0.008862721 0.015757078 -0.0044754716 -0.010663897
0.0043671816 -0.0057462417 0.0046285777 -0.006159001 -0.015881158 0.014530109 0.015991403 -0.010475404
-0.0038976546 -0.0037973614 0.022952566 -0.0012148566 -0.019105507 0.0107698245 0.01728889 0.007219666
0.0028954705 -0.016007852 -0.0028080028 0.004810982 -0.006531874 0.0033241627 -0.006988474 -0.010385866
-0.015292915 0.009790796 -0.019801993 -0.024659965 -0.00718942 0.007742882 0.010831179 0.005426182
0.0064713107 0.008617975 0.017345484 0.031523097 0.020471914 -0.00024406407 -0.013393301 -0.020416198
0.0073599457 0.00014070986 0.00017863452 -0.014638386 0.019737406 0.016607663 0.012257359 -0.01960395
0.012072987 -0.019651333 0.0042310427 -0.004084585 -0.017025799 -0.0047512823 -0.010155676 0.016963888
-0.0032043897 -0.014322651 -0.012658722 0.008105561 -0.021673596 -0.001339165 -0.0023367957 0.0025209568
0.008909704 0.009619412 0.010671197 -0.0073287743 0.0024307976 -0.005894608 -0.015604702 -0.009576907
-0.0077778394 -0.0008889972 -0.004699799 -0.011119175 0.012381503 -0.010768189 -0.014615418 -0.0053188996
0.019034877 -0.005365643 -0.0019858438 0.019544046 0.002150458 0.0027915812 -0.023106406 0.020168044
-0.013253281 0.0022571816 -0.022223413 -0.0049002026 -0.018495446 -0.0040826737 -0.002634575 0.020915255
0.009067522 0.0035387408 -0.00047114398 -0.01319242 -0.010667064 0.016541008 -0.015130356 0.012909258
0.0040344317 -0.02062663 0.008699952 0.010662069 -0.0022270724 -0.0037410238 0.026203213 -0.007266213
0.004861723 -0.004871789 0.021345979 0.0050414535 0.014393632 -0.005494456 0.010358573 0.0103333285
-0.0019379929 -0.032862436 0.009341097 -0.0035348576 0.0020263256 0.0006715117 -0.0025758261 -0.011717741
0.0064875 -0.0031086877 -0.0015566698 0.018584145 0.0012381965 -0.003274065 0.0032635822 0.0021514592
-0.010268388 -0.023864074 -0.017982686 -0.00027320985 -0.014669202 -0.009289371 -0.0026491375 0.004122689
0.015286728 -0.02868313 0.025911022 -0.008014622 0.008553299 -0.008404851 -0.019443369 -0.0140287895
-0.0148618715 0.018164812 0.014691432 -0.009112425 -0.0046501053 0.0009032855 0.0074092746 0.0026563664
0.010610748 0.0064241625 -0.004126567 0.009465863 -0.005473679 0.0043627606 -0.002631313 0.00049320166
-0.003179683 0.008229817 0.01429905 -0.025825722 -0.01476261 -0.009603518 -0.038354617 -0.008695221
0.015901102 -0.0031068202 -0.01801617 0.005243171 -0.012827507 -0.016210575 -0.002754746 -0.008724964
2.5433716e-05 -0.01290769 0.018583938 -0.0022497012 -0.021166427 0.014303967 0.01060982 -0.0029691663
0.0033406492 -0.0047791493 -0.009573269 0.0065507623 -0.0051659932 -0.008864403 0.014693531 0.025588838
-0.0068458426 -0.004488153 -0.00041822958 0.005216143 0.0034863667 0.02378096 0.00017536133 0.01256971
-0.014172669 -0.0070451195 -0.00968903 0.008200235 -0.002879582 -0.004950004 -0.015397692 0.018400485
-0.033763394 0.008949564 -0.004034312 -0.0037258414 0.0051121665 -0.009367783 0.03730605 -0.007108722
-0.015300999 0.0035547987 -0.013854766 -0.0010531791 -0.002589926 -0.003537335 0.021265808 0.008288002
-0.0043744296 0.009029171 0.010434184 0.023472065 -0.008569005 -0.0005895111 -0.009181069 0.010233718
0.003316391 -0.003401142 -0.005032018 0.009674728 -0.0005111211 -0.0055761663 0.027192628 0.0034612396

action_model._distributions.1.branches.0.bias f4 [2]
00000000: 0000 0000 0000 0000
0.0 0.0

action_model._distributions.1.branches.0.weight f4 [2, 128]
00000000: 51d8 17bb ef71 d43b 03e7 903b 4061 a73c
00000010: 46af 4c3c 6a82 f73a a919 133c b7e4 9bbc
00000020: bea5 473c a77e 89bc 3f2a 8bbc 0672 073c
00000030: 8344 9d3b f989 87bc c4ec 3abc fd27 88bb
00000040: 781d 1cbc 2311 783c 0753 763c 8cd7 2bbc
00000050: 0701 2b3c 3b08 203b 1e49 a13c 209f 123c
00000060: ec86 993c c622 19bd c8dd a9bc 883f 48bc
00000070: 6815 b0bc b2a7 eb3c 6afd babb d7aa 8a3b
00000080: 2abf 7dbc f82c d83c 0708 5fbb 1fe4 103c
00000090: 2fad 0cbc eb42 0ebc e384 6cbc b73f feba
000000a0: 1b6a b9bc 3562 1bbc ad2f 12bc 18ce 13bb
000000b0: 35bd 7ebc 88eb 27bc 2eef 40bc 37e2 a639
000000c0: 0754 4bbc 17b3 9cbb bc1e a5ba 23dd 52bb
000000d0: 052d e6bc 8787 803b 625e 25bc 181d e83a
000000e0: e55e 713c 2d4a 05bc a02f be3c f48d ac3c
000000f0: c3c8 e0ba d94c 413c 0d1d 423b 23bb 273c
00000100: fde9 bdbc 6559 ecbb 882a e13b 5b8a c23b
00000110: 233b bd3b 45e9 4dba 2737 3f3b e05f 67bc
00000120: d308 27bc 9816 5a3b 6153 0b3c 6d6c 9a3b
00000130: 0fed 063c 1c70 cabc e7e1 9b3b a23f 593c
00000140: a108 a1bc 2d64 783b 4906 aebb 5c58 0fbc
00000150: 4538 38bb 49e1 82bc fbf0 5cbc 5d6e 263c
00000160: b364 44ba 1150 b339 5be9 8ebb dacc 60bc
00000170: 07dd 573a c3e3 4a3c 3a70 8aba 80bb 2d3c
00000180: 3334 09bc 6d4a c9b9 8784 7a3c 473f c73c
00000190: 0009 8bbc 4b2a 303b 779a 953c c947 1abc
000001a0: fd63 ccbb e372 423b a33d 563c cb1c 513b
000001b0: bdd1 803b c8b1 ae3b e28c cabb 60bc 3d3c
000001c0: 0bdb 953c cc7e 8bbb 0277 883b 7ace cd3b
000001d0: cd26 803c f105 cbbb cbe2 2ebc 62f5 92bc
000001e0: 20d1 1a3c e80e 46bc 5634 8fba 5b5a fe3b
000001f0: 9549 a23a cdda afbc 6adc 14bc e62b 36bc
00000200: 9803 af3a 73be f83b 8b26 8dbc 880e 33ba
00000210: 669f 9d3b 91c7 0e3c 4825 cabb e7d8 c3bb
00000220: ea4e cd3c adbb b93c 3db8 60bc f6d2 203c
00000230: 7325 4abc f65a 9fbc 88d7 cc3c 7c97 cbbb
00000240: 9346 5abc e579 3e3c 4ebd c53c 7e59 a53c
00000250: c4b9 26bc 2e28 313c 98a6 80ba 890e 1ebc
00000260: af76 1fbc f57f b7b9 375c 63bc b8f9 573c
00000270: 1f72 c23c fdb1 0dbc 8058 ad3b e0a0 6cbc
00000280: e092 f2bb cb17 793c 6717 56bc 1fbf c8ba
00000290: 673d 41bc 8d2c 6c3b 65da 673c 7bdd 71bb
000002a0: 6249 faba 5243 c139 93ce 703c 3857 1dbc
000002b0: 534f 03bc 541e 37bc bdbe 7d3b 67ba 1bbc
000002c0: b96a 8eba dad2 8d3c 35b6 4c3c 4a77 63ba
000002d0: 668c 143c a3e1 06bc b0de aa3b 506e 553b
000002e0: bd72 79bc 5f3d 8d3c 6432 21b8 5143 4cbc
000002f0: 52c0 51bb 0011 d6ba f346 8aba 51fc 4bbc
00000300: e71b cb39 2016 bf3c 44bf 2bbb dbbf 07bc
00000310: 2267 573c af21 b63c 59cb 8a3c 0fc5 883c
00000320: 91f0 ca3c b06e a23c 7f18 c83a 1d9e be39
00000330: 5b4e 1abc 6d14 a73b 63bd 5a3a e8b8 e9ba
00000340: ff99 0dbb 05ee e93b 8b72 38bc b85c 7abc
00000350: 10f0 723b 57c4 533c 190d 3aba f12b 07bc
00000360: a7c7 823c 1caa 30bc 9528 0f3c 3d97 9ebb
00000370: 1ad8 b1bb cf99 433b 9057 7d3c 09a8 17bb
00000380: 389f 4dbc 5c3f 0bb9 8f3e f93b 31e5 3fbc
00000390: 3fa8 ba3a 1283 2dbb d14a 1c3c b213 f23b
000003a0: f1a7 a2bc 1e1b b0bb cded a1bb ebce 0dbc
000003b0: 621f 2cbc 80df 9dbb 7f55 09bb 8a12 a23c
000003c0: 36cd 93bb 5f80 71bc 87fa a4bc 2b52 25bc
000003d0: 39ff 17bc bf1d 8abc 9a5a 62ba a1d4 35bc
000003e0: 4892 783c 5a76 963c df23 9d3a e3db 08bb
000003f0: b851 cdba ce4a b0bc 7dc8 f53b 99f8 83bc
-0.0023169706 0.0064833085 0.00442207 0.020432115 0.01249296 0.0018883471 0.008978286 -0.019029958
0.012185512 -0.016784025 -0.016987918 0.008266931 0.004799427 -0.016545283 -0.011408988 -0.0041551576
-0.00952851 0.015140804 0.015034444 -0.010488402 0.010437257 0.0024418968 0.019688185 0.008949071
0.018741094 -0.03738668 -0.020735636 -0.012222178 -0.021494582 0.028766487 -0.005706479 0.0042317915
-0.015487472 0.02638863 -0.0034031884 0.008843451 -0.008586212 -0.008682947 -0.01443598 -0.0019397651
-0.022633603 -0.009483864 -0.0089225 -0.0022553261 -0.01554804 -0.010249026 -0.011775775 0.0003183053
-0.01241017 -0.0047820914 -0.001259766 -0.0032175265 -0.028097639 0.003922406 -0.010093303 0.0017708866
0.014732097 -0.008135361 0.023216069 0.021063782 -0.0017149675 0.011798107 0.0029619366 0.010237488
-0.023182863 -0.007212805 0.006871525 0.0059369034 0.005774872 -0.0007854889 0.002917716 -0.0141219795
-0.010194975 0.0033277627 0.008503766 0.0047126324 0.00823523 -0.024711661 0.0047571543 0.0132598
-0.019657435 0.0037901506 -0.005310808 -0.008749094 -0.002810971 -0.015976565 -0.013485189 0.010158149
-0.0007491812 0.00034201195 -0.0043613142 -0.013720715 0.0008234535 0.012383404 -0.001056201 0.0106037855
-0.008374262 -0.0003839316 0.015290386 0.024322165 -0.016972065 0.0026880677 0.018262131 -0.009416529
-0.0062375055 0.0029670529 0.013076219 0.003190803 0.0039312528 0.005331252 -0.0061813453 0.011580557
0.018292924 -0.0042570587 0.0041645775 0.0062807174 0.015643502 -0.0061957766 -0.010674189 -0.017939273
0.009449273 -0.012088515 -0.0010925632 0.007762236 0.0012381548 -0.021466637 -0.009085754 -0.011118865
0.0013352511 0.0075910627 -0.017230293 -0.00068304734 0.0048102615 0.0087145725 -0.006168995 -0.0059767845
0.025062043 0.022672499 -0.013715801 0.009815922 -0.01233803 -0.019452553 0.025005117 -0.0062131267
-0.01332249 0.011625742 0.02413812 0.020184275 -0.010176126 0.010812802 -0.0009815274 -0.00964702
-0.009732886 -0.00034999815 -0.013876966 0.013182096 0.023736058 -0.008648393 0.005290091 -0.014442652
-0.007402763 0.015203427 -0.013067103 -0.0015315748 -0.011794425 0.0036037297 0.01415119 -0.0036905694
-0.0019095356 0.00036861986 0.014697689 -0.009603314 -0.008014518 -0.011176664 0.0038718425 -0.009504891
-0.0010865546 0.017312456 0.012494613 -0.0008677138 0.009066677 -0.008232507 0.0052145347 0.0032566972
-0.01522511 0.017241178 -3.843232e-05 -0.012467221 -0.00320055 -0.0016331971 -0.0010549709 -0.012450294
0.00038739966 0.02332598 -0.0026206532 -0.008285488 0.013147147 0.022232858 0.016942667 0.016695527
0.024772914 0.01982817 0.001526609 0.00036357428 -0.009418095 0.0050988705 0.0008344261 -0.0017831596
-0.0021606681 0.00713897 -0.011257778 -0.015280895 0.0037069358 0.012925229 -0.00070972886 -0.008250223
0.015964342 -0.010782745 0.008737703 -0.0048398064 -0.0054273726 0.0029846316 0.015462771 -0.0023140928
-0.012550168 -0.00013279676 0.0076063345 -0.011712358 0.0014240815 -0.002647583 0.009539322 0.007387602
-0.019855471 -0.0053743264 -0.004941678 -0.00865529 -0.010505529 -0.004817903 -0.00209555 0.01978423
-0.004510547 -0.014740079 -0.020138992 -0.010090391 -0.009277158 -0.016859887 -0.00086347165 -0.011098058
0.015171595 0.018366981 0.001198884 -0.0020883016 -0.0015664613 -0.021520045 0.0075007067 -0.016109752

network_body.linear_encoder.seq_layers.0.bias f4 [128]
00000000: 0000 0000 0000 0000 0000 0000 0000 0000
00000010: 0000 0000 0000 0000 0000 0000 0000 0000
00000020: 0000 0000 0000 0000 0000 0000 0000 0000
00000030: 0000 0000 0000 0000 0000 0000 0000 0000
00000040: 0000 0000 0000 0000 0000 0000 0000 0000
00000050: 0000 0000 0000 0000 0000 0000 0000 0000
00000060: 0000 0000 0000 0000 0000 0000 0000 0000
00000070: 0000 0000 0000 0000 0000 0000 0000 0000
00000080: 0000 0000 0000 0000 0000 0000 0000 0000
00000090: 0000 0000 0000 0000 0000 0000 0000 0000
000000a0: 0000 0000 0000 0000 0000 0000 0000 0000
000000b0: 0000 0000 0000 0000 0000 0000 0000 0000
000000c0: 0000 0000 0000 0000 0000 0000 0000 0000
000000d0: 0000 0000 0000 0000 0000 0000 0000 0000
000000e0: 0000 0000 0000 0000 0000 0000 0000 0000
000000f0: 0000 0000 0000 0000 0000 0000 0000 0000
00000100: 0000 0000 0000 0000 0000 0000 0000 0000
00000110: 0000 0000 0000 0000 0000 0000 0000 0000
00000120: 0000 0000 0000 0000 0000 0000 0000 0000
00000130: 0000 0000 0000 0000 0000 0000 0000 0000
00000140: 0000 0000 0000 0000 0000 0000 0000 0000
00000150: 0000 0000 0000 0000 0000 0000 0000 0000
00000160: 0000 0000 0000 0000 0000 0000 0000 0000
00000170: 0000 0000 0000 0000 0000 0000 0000 0000
00000180: 0000 0000 0000 0000 0000 0000 0000 0000
00000190: 0000 0000 0000 0000 0000 0000 0000 0000
000001a0: 0000 0000 0000 0000 0000 0000 0000 0000
000001b0: 0000 0000 0000 0000 0000 0000 0000 0000
000001c0: 0000 0000 0000 0000 0000 0000 0000 0000
000001d0: 0000 0000 0000 0000 0000 0000 0000 0000
000001e0: 0000 0000 0000 0000 0000 0000 0000 0000
000001f0: 0000 0000 0000 0000 0000 0000 0000 0000
0.0 0.0 0.0 0.0 0.0 0.0 0.0 0.0
0.0 0.0 0.0 0.0 0.0 0.0 0.0 0.0
0.0 0.0 0.0 0.0 0.0 0.0 0.0 0.0
0.0 0.0 0.0 0.0 0.0 0.0 0.0 0.0
0.0 0.0 0.0 0.0 0.0 0.0 0.0 0.0
0.0 0.0 0.0 0.0 0.0 0.0 0.0 0.0
0.0 0.0 0.0 0.0 0.0 0.0 0.0 0.0
0.0 0.0 0.0 0.0 0.0 0.0 0.0 0.0
0.0 0.0 0.0 0.0 0.0 0.0 0.0 0.0
0.0 0.0 0.0 0.0 0.0 0.0 0.0 0.0
0.0 0.0 0.0 0.0 0.0 0.0 0.0 0.0
0.0 0.0 0.0 0.0 0.0 0.0 0.0 0.0
0.0 0.0 0.0 0.0 0.0 0.0 0.0 0.0
0.0 0.0 0.0 0.0 0.0 0.0 0.0 0.0
0.0 0.0 0.0 0.0 0.0 0.0 0.0 0.0
0.0 0.0 0.0 0.0 0.0 0.0 0.0 0.0

network_body.linear_encoder.seq_layers.0.weight f4 [128, 53]
00000000: d690 fcbd 7013 1abf 3d4f 07be d79e 863e
00000010: dd8f 08bf a830 93bd 51bb 68bd 4ce5 3cbe
00000020: b613 77bc 7c1a 92be 8e32 813d 58ef 37be
00000030: d53e f0bd 3104 aabd f546 3b3e c0b3 2f3d
00000040: 1266 f33c 8a4b 80be c743 1a3e 1183 393d
00000050: 0b5c d93d 9f42 8ebd 95f2 583d c183 693e
00000060: 5aca b33c 7580 333e 96f8 0ebd f579 393e
00000070: a4c1 2a3e ef7a b23c d733 3bbd ac90 abbd
00000080: 05cf aa3c 5109 183d daca 3ebe ad2d 573e
00000090: b5a0 b03d a663 27bd e132 b2bd 850f 72bc
000000a0: d5f5 1bbe 96f4 1ebd 64bf 56be eaef c4be
000000b0: 166d 793d 2d0b 4dbe cbd3 2dbe eb3a ab3d
000000c0: 75a8 253e a870 69be a428 9abd 1294 c33d
000000d0: 1124 6c3d 9908 b83e 2385 833d 2e8e a83d
000000e0: 6ef9 503e 46f8 ee3d 051e 0d3e d37a eabd
000000f0: 35e2 603e 9b85 0fbe 1a38 833e 676f bbbd
00000100: 93e8 523d db6b c63d f0bc b73e ab75 913c
00000110: b1a7 8abe 2c0a 3bbe 99ad 813e c4fb dbbc
00000120: 80c6 753e 9fc7 f2bc b6e6 76bd cd45 d63c
00000130: 9f43 6ebc 26b0 cabe c212 9b3d 0349 0fbe
00000140: 0fc2 8a3e fae2 8f3e cbd1 5f3d 0750 eb3d
00000150: 041e be3d 1eb5 32be dc01 a23e 0773 503e
00000160: 472d 653e e3ec c2bd 5f13 32bd 06f1 9abb
00000170: 284d 0f3e 87d8 fbbd 28c8 3e3e 96b4 7b3e
00000180: 2087 5f3e 3dfb b43d ba87 d53e c41c 5ebd
00000190: 86d0 eabd 2f08 ad3c ecec 38be 7e42 cd3d
000001a0: 555c 3fbd c6cd e03d efe7 06bd 4517 95bd
000001b0: b2f7 1a3f 1646 023f 917f b3be bc54 b2bd
000001c0: 1862 17be fd72 7ebe 5da8 6d3d 3e3b 333e
000001d0: 64d1 28be 7c9a c1bd 487d c0be e19e 6dbe
000001e0: 27ed ac3e d9e6 633d 3eab eabd 9224 813e
000001f0: ff1a 0cbd a5cc 733e 4815 3bbe 47bc c3be
00000200: 7f3b 873e 9cd6 5cbe ead7 6f3d ce1d 3a3e
00000210: 07b8 0fbe e161 f7bd 03f1 853e b58f 9f3e
00000220: 78ff 90be f970 84be b5e0 1d3d 78cc 8a3a
00000230: 902e c5bc f61d 713d cad5 623e ae46 7fbd
00000240: 3faf e13e baba 703d 83e7 7f3e bee8 123c
00000250: 1e84 4b3e cc51 653c cc62 fabc 9d30 ab3c
00000260: 26fc 01be de03 743e 08a2 173e d8d5 433e
00000270: 47ca 0abe 971a 2ebe 9c2c 783d db49 af3d
00000280: c9a9 513e bd6d e23e 2209 80bc 053f d8bc
00000290: c0a8 73be ad17 1cbe c114 1c3d e48d c23d
000002a0: 253b 49be cab7 513e 30ae 683e 6aef 66be
000002b0: e44c a13e f3fb 7a3e 228a 5abe 3b18 67bd
000002c0: caa8 213e 0ff8 96be ccf9 3f3e 489f 80be
000002d0: 1ca8 40be 205d 253d 7829 cc3e a476 29be
000002e0: 667b 34be 80d0 5a3d 0e01 bd3d 067e 9abe
000002f0: d894 0a3e 3e16 483e 6ab7 c4bc abcb ae3e
00000300: 14e1 0dbe 0a56 143e 50e3 84bc ae37 033e
00000310: f1ac 17be d33d 74be d96a 83be 9f68 ec3d
00000320: a12f 90bb c1c7 2b3d f650 2abe 2c4c 943e
00000330: 1443 8abd 93de 8e3d 50ff 45be 114a 02bc
00000340: fa06 ad3e 9140 2bbe e4de f0bd 32f4 913e
00000350: c7df 7d3d a962 a4be 802f 9e3d 1309 cbbe
00000360: bf69 9abe 2d63 853e 9c3a dbbd ad28 863d
00000370: 020d 733d 9aa9 033c ed94 d4be 3d7b 54be
00000380: e2bb cabe 6306 c9bd bc19 313e 3efa bfbd
00000390: 8bc4 963e 420c a73e a062 28be f04d bfbd
000003a0: 249e b43d 9fe9 00bd 156c 993d ee79 8a3c
000003b0: eb22 7cbe b202 43ba c88f cf3c 712a bb3d
000003c0: b762 a53d 31cb 813e 8165 67bd 7177 173d
000003d0: 5d21 cb3d 61e1 32bd bc28 ba3d 9823 9abe
000003e0: 065d 84bd c32a a2be 65e3 8ebe 7cc3 11bc
000003f0: 56c0 3ebe 5d3f 38be 5bf4 1bbe c1a9 773e
-0.12332313 -0.6018591 -0.13213821 0.2629306 -0.5334452 -0.07187015 -0.056819264 -0.18446845
-0.015080383 -0.2853583 0.06308471 -0.17962396 -0.11730734 -0.08301581 0.18288787 0.042896032
0.029711757 -0.25057632 0.15064918 0.04529101 0.10613259 -0.06946301 0.05296572 0.22804166
0.021947075 0.17529471 -0.03490504 0.18112929 0.1667543 0.021787135 -0.045703735 -0.08377203
0.020850668 0.03711826 -0.18632069 0.21013518 0.086244024 -0.040866517 -0.08701111 -0.014774208
-0.15230496 -0.038807474 -0.20971447 -0.3846429 0.060895048 -0.20023794 -0.16975324 0.08360847
0.16177543 -0.22796881 -0.07527283 0.095497265 0.057651583 0.3594406 0.06421878 0.082302436
0.2040765 0.11668448 0.13780983 -0.11449208 0.21961291 -0.1401581 0.2562874 -0.09152108
0.05149133 0.096885405 0.35886335 0.017756304 -0.27081063 -0.18265599 0.25327757 -0.02685345
0.24001503 -0.029636202 -0.060278617 0.02615633 -0.014542489 -0.39587516 0.07571937 -0.13992696
0.2710118 0.28102857 0.054643434 0.114898734 0.09283069 -0.17451903 0.31642044 0.2035638
0.22380553 -0.09517839 -0.043475505 -0.0047284393 0.13994277 -0.12297159 0.18631041 0.24580607
0.2182889 0.088369824 0.41705114 -0.05422665 -0.11465554 0.021122066 -0.18059129 0.10022448
-0.046718914 0.10976748 -0.032936033 -0.07279829 0.60534203 0.5088819 -0.35058263 -0.08707568
-0.14783514 -0.24848552 0.05802189 0.17503068 -0.16486126 -0.09453294 -0.37595582 -0.23205139
0.33774683 0.055640075 -0.11458443 0.25223213 -0.034205433 0.23808534 -0.18269837 -0.38229582
0.2641258 -0.21566242 0.05855552 0.18175432 -0.14035045 -0.12079216 0.2616044 0.31164327
-0.28319907 -0.2586744 0.038544375 0.0010589501 -0.024070054 0.058866464 0.22151867 -0.062323265
0.44079015 0.058771826 0.24990658 0.008966623 0.19874617 0.013996553 -0.030564688 0.020897204
-0.12693843 0.238296 0.14807904 0.19124544 -0.13553725 -0.1700233 0.060589418 0.08559009
0.20474924 0.4422435 -0.015629355 -0.026397238 -0.23794842 -0.15243407 0.03810573 0.0949972
-0.19651468 0.20480266 0.22722697 -0.22552267 0.31503975 0.24510173 -0.21341756 -0.056419592
0.15787044 -0.2948613 0.18747634 -0.25121522 -0.18814129 0.040372014 0.39875388 -0.16549164
-0.17625198 0.053421497 0.09228717 -0.30174273 0.13533342 0.19539735 -0.02401324 0.3413976
-0.13855392 0.14485946 -0.016221672 0.12814209 -0.14812066 -0.23851709 -0.25667456 0.115433924
-0.004400209 0.041938547 -0.16632447 0.28964365 -0.067510754 0.069760464 -0.19335675 -0.007952229
0.33794385 -0.16723849 -0.11761263 0.2850662 0.06198099 -0.32106522 0.07723904 -0.3965536
-0.30158803 0.26052228 -0.10704538 0.06550727 0.059338577 0.008036042 -0.4151987 -0.20750137
-0.39596468 -0.09815671 0.17294973 -0.09373902 0.29446825 0.3262654 -0.16443872 -0.09341037
0.088192254 -0.0314728 0.07491318 0.016903844 -0.24622695 -0.00074390613 0.025337115 0.091389544
0.08075469 0.25350335 -0.056493286 0.036979143 0.09918473 -0.04367197 0.09089801 -0.3010528
-0.06463055 -0.3167325 -0.27907863 -0.008896705 -0.18628058 -0.17992921 -0.15229933 0.2418585

network_body.linear_encoder.seq_layers.2.bias f4 [128]
00000000: 0000 0000 0000 0000 0000 0000 0000 0000
00000010: 0000 0000 0000 0000 0000 0000 0000 0000
00000020: 0000 0000 0000 0000 0000 0000 0000 0000
00000030: 0000 0000 0000 0000 0000 0000 0000 0000
00000040: 0000 0000 0000 0000 0000 0000 0000 0000
00000050: 0000 0000 0000 0000 0000 0000 0000 0000
00000060: 0000 0000 0000 0000 0000 0000 0000 0000
00000070: 0000 0000 0000 0000 0000 0000 0000 0000
00000080: 0000 0000 0000 0000 0000 0000 0000 0000
00000090: 0000 0000 0000 0000 0000 0000 0000 0000
000000a0: 0000 0000 0000 0000 0000 0000 0000 0000
000000b0: 0000 0000 0000 0000 0000 0000 0000 0000
000000c0: 0000 0000 0000 0000 0000 0000 0000 0000
000000d0: 0000 0000 0000 0000 0000 0000 0000 0000
000000e0: 0000 0000 0000 0000 0000 0000 0000 0000
000000f0: 0000 0000 0000 0000 0000 0000 0000 0000
00000100: 0000 0000 0000 0000 0000 0000 0000 0000
00000110: 0000 0000 0000 0000 0000 0000 0000 0000
00000120: 0000 0000 0000 0000 0000 0000 0000 0000
00000130: 0000 0000 0000 0000 0000 0000 0000 0000
00000140: 0000 0000 0000 0000 0000 0000 0000 0000
00000150: 0000 0000 0000 0000 0000 0000 0000 0000
00000160: 0000 0000 0000 0000 0000 0000 0000 0000
00000170: 0000 0000 0000 0000 0000 0000 0000 0000
00000180: 0000 0000 0000 0000 0000 0000 0000 0000
00000190: 0000 0000 0000 0000 0000 0000 0000 0000
000001a0: 0000 0000 0000 0000 0000 0000 0000 0000
000001b0: 0000 0000 0000 0000 0000 0000 0000 0000
000001c0: 0000 0000 0000 0000 0000 0000 0000 0000
000001d0: 0000 0000 0000 0000 0000 0000 0000 0000
000001e0: 0000 0000 0000 0000 0000 0000 0000 0000
000001f0: 0000 0000 0000 0000 0000 0000 0000 0000
0.0 0.0 0.0 0.0 0.0 0.0 0.0 0.0
0.0 0.0 0.0 0.0 0.0 0.0 0.0 0.0
0.0 0.0 0.0 0.0 0.0 0.0 0.0 0.0
0.0 0.0 0.0 0.0 0.0 0.0 0.0 0.0
0.0 0.0 0.0 0.0 0.0 0.0 0.0 0.0
0.0 0.0 0.0 0.0 0.0 0.0 0.0 0.0
0.0 0.0 0.0 0.0 0.0 0.0 0.0 0.0
0.0 0.0 0.0 0.0 0.0 0.0 0.0 0.0
0.0 0.0 0.0 0.0 0.0 0.0 0.0 0.0
0.0 0.0 0.0 0.0 0.0 0.0 0.0 0.0
0.0 0.0 0.0 0.0 0.0 0.0 0.0 0.0
0.0 0.0 0.0 0.0 0.0 0.0 0.0 0.0
0.0 0.0 0.0 0.0 0.0 0.0 0.0 0.0
0.0 0.0 0.0 0.0 0.0 0.0 0.0 0.0
0.0 0.0 0.0 0.0 0.0 0.0 0.0 0.0
0.0 0.0 0.0 0.0 0.0 0.0 0.0 0.0

network_body.linear_encoder.seq_layers.2.weight f4 [128, 128]
00000000: 66bb f53d 93e0 cabd 59f1 083c 1c2d bebd
00000010: 5422 3cbd fd16 1b3d eee9 dcbd cdb5 5dbe
00000020: 4f28 1a3e ab63 41be 73e8 7abc d753 9a3e
00000030: 559a 253e 27f4 a6be 421c aabc 2ab7 e43b
00000040: 9897 31bd f749 86bc 3ed5 383e 13c3 4fbd
00000050: c466 143e f4a2 a03d 1fe9 cc3d 3d69 9f3d
00000060: 97bc efbd d01c 003d 1614 2fba c314 0ebe
00000070: 0cf7 653c 52bf 213e 73c7 dfbb 045b 51be
00000080: 45ab 35bd bf78 0f3e 392c 08be 7f1a 273e
00000090: 76a9 d03c 03a2 133e 2c59 913e c890 45be
000000a0: 47e9 d5bc be18 143e 6a57 f93d ea87 773d
000000b0: 3b33 13be f3cf a23d 97d5 e23d 53ae 90bd
000000c0: 35ed 893d 9e42 63bd 9492 9e3c 6e20 97be
000000d0: ed71 4b3e 53ed 01be 0c5a ccbb e8c3 a7bd
000000e0: a984 adbd b137 3a3e b384 2b3b 01fa 73bc
000000f0: b068 ce3d a957 1a3e 6be7 02be 0322 003e
00000100: da06 4d3d 42c5 74be 7629 14bd 1d9a e3bd
00000110: a5ac fe3b 1030 3cbe 1055 2abd f6e0 013d
00000120: 8f0d a03c cf7f 28be 957c 5b3d 3461 01be
00000130: 80a0 1e3e 7732 9b3e ccbd a6bd a0fa 3cbc
00000140: 93a1 05be cfa6 c03d 5fa2 c43d bbeb 79bd
00000150: 6b96 833d 7c71 9f3d 6afe bebb 7064 973d
00000160: d16a 8a3e 4519 503d 79ca f2bd 0e1f 1bbe
00000170: a29b 2dbe ff68 9b3d d2de 2dbe e130 403d
00000180: 12b2 e73d 78f5 fc3c 164c a5bc 0b2e f73c
00000190: 95f1 103e 4065 8cbd ce11 9f3d 7c22 21bc
000001a0: 20ea 94bd ad43 383e c00e 76bd fe21 033e
000001b0: 86a1 4dbd 170c 123e bc89 4fbe 610c f43d
000001c0: a762 9a3d 6970 50bd 4fde 803d 3034 203e
000001d0: fc48 8b3d 36ef bb3c ba4b 403e 6560 673d
000001e0: a2da 12bb 3a69 8abd 9452 ddbd 1ff5 6fbe
000001f0: 955f babc e70b f93d 0c56 98bd 3d9c 74bb
00000200: 0b16 623c 41bf 073d 1d3b dd3d bd82 ebbc
00000210: 0a13 90be 754d 1ebe 632f 43bc bd48 febd
00000220: c650 be3c 0e3d b0bd b1d1 4bbd 08ad 953c
00000230: 3263 3b3e 749b 92bd 6a42 de3d fb94 5e3d
00000240: 9f55 86be 93af 11be 3047 c1bd 5e16 0e3d
00000250: 35e1 a23c 6776 4b3e e6b2 d23c c1cd 2b3e
00000260: 71ce b0bd 5b8f 303d 54d6 93bc aa06 0bbe
00000270: 1ed2 e73c 8411 4d3d b161 5f3e 2829 21bd
00000280: 253c a63e f502 60bd c4a2 3c3e 584d 103d
00000290: f4ba 04be 9d89 e73d 164d ae3e e065 c73d
000002a0: f92c fc3b 17fa fd3d 8deb b2bd 4bdd a43d
000002b0: 7c88 15bd 9907 9fbd cb2d aa3d 41d2 b4bd
000002c0: b652 44bd 3166 093e fa6a e03b b4c7 3bbe
000002d0: a835 8e3d 0162 a8bd 7da2 b3bd a147 cf3d
000002e0: 65c4 103d 95dc 4bbd 9485 943b dc72 dbbd
000002f0: 1903 1abd 61af 15be 8031 e23d 30eb efbd
00000300: 61aa 743d e4a4 4a3e 3a73 cdbd 696e 82bc
00000310: 2372 a33d 248f b83d c05e 8fbc 93fc 373d
00000320: d5f6 463c 771d 823e 3dc5 53bd 8bc8 7d3d
00000330: 7d62 683d 24bc 1e3c ada0 153e aa10 393e
00000340: 35cc a03d a738 57bc ddab 87ba 90a6 2dbd
00000350: 7a40 813e 451d 62bc ac9b b83d 307f 553e
00000360: 7d2e f5bb 9192 173e d1d6 5dbe b7a1 9a3d
00000370: 3df9 913e 2d1a 6abc 65d9 75bd 5d4f 5bbd
00000380: 6a00 a83d 9585 063e 3c04 493e d62e bdbd
00000390: 4fb4 eebd 5dc6 fdbd 4136 1f3e 6ca0 59bd
000003a0: fd51 033e 7d8a e1bd 6843 b03d eda0 a53e
000003b0: ce7e b13d 15d4 543e c36b b53d 0139 3b3d
000003c0: cfdb ed3d 176d fabd 5519 fe3d c4a3 973e
000003d0: b27f 483d dfac ca3d 0250 6fbd ed04 493c
000003e0: c0d1 7ebd dbae 19bc e943 2c3c f75c c4be
000003f0: 438c 363e 0718 acbd 99aa b3bd 0a2f 6a3e
0.11998634 -0.099061154 0.008358323 -0.09285948 -0.045931175 0.03786372 -0.10786806 -0.21651383
0.15054439 -0.18885677 -0.015314209 0.3014209 0.16172154 -0.32608148 -0.020765428 0.0069798427
-0.04335746 -0.016392691 0.18050095 -0.050723147 0.14492327 0.07843581 0.10005402 0.077837445
-0.117058925 0.031277478 -0.0006678713 -0.13875107 0.014035951 0.15795639 -0.006829196 -0.20444876
-0.04435279 0.14010905 -0.1329812 0.16318701 0.02547143 0.14417271 0.28388345 -0.19293511
-0.026112212 0.14462563 0.12174876 0.060432352 -0.14375012 0.079498194 0.11075895 -0.070645
0.06734697 -0.055483453 0.019357003 -0.2951693 0.19867678 -0.12688188 -0.0062363204 -0.08191663
-0.084725685 0.18185307 0.0026171624 -0.014891149 0.10078561 0.15072502 -0.12783591 0.12512974
0.050055362 -0.23903373 -0.036172353 -0.11113379 0.0077720457 -0.1837771 -0.04158503 0.03170868
0.019537715 -0.16455005 0.053585608 -0.12634736 0.15490913 0.3031194 -0.0814167 -0.011534363
-0.13049917 0.09406816 0.09601282 -0.061015826 0.06425174 0.07785317 -0.0058286684 0.07392204
0.2703462 0.05080535 -0.11855025 -0.15148565 -0.169539 0.07588386 -0.1697953 0.046921615
0.11313261 0.030878767 -0.020177882 0.030173322 0.14154656 -0.068552494 0.07767068 -0.009834882
-0.07271218 0.17994566 -0.06007266 0.12805936 -0.05020287 0.14262424 -0.20267385 0.119164236
0.07538348 -0.050888453 0.06292402 0.15644908 0.0680103 0.022941213 0.18778887 0.056488413
-0.0022408147 -0.067583516 -0.10806766 -0.2343335 -0.022750655 0.12160473 -0.07438287 -0.003732457
0.013799201 0.03314138 0.108022906 -0.028748864 -0.28139526 -0.15459235 -0.011913153 -0.124162175
0.023231875 -0.08605395 -0.049760524 0.018270984 0.18299559 -0.071585566 0.10852511 0.054341298
-0.262372 -0.14227132 -0.09437406 0.0346893 0.019882778 0.19869386 0.025720071 0.16777708
-0.086331256 0.043105464 -0.018046536 -0.13576761 0.028298434 0.050065532 0.2181461 -0.03934589
0.32467762 -0.05469032 0.18421465 0.03523001 -0.12961942 0.113055445 0.34043187 0.09736228
0.007695791 0.124012165 -0.08736334 0.08050021 -0.036507115 -0.07765121 0.083095156 -0.08829165
-0.04793044 0.13417889 0.00684869 -0.183379 0.06943828 -0.08221818 -0.087712266 0.10121084
0.035343546 -0.04977091 0.0045325253 -0.10715267 -0.03760061 -0.14617683 0.110445976 -0.1171478
0.0597328 0.19789463 -0.10031743 -0.015921788 0.07980754 0.09011677 -0.017501235 0.044918608
0.01214381 0.25413105 -0.051701773 0.06195883 0.05673455 0.009688411 0.14612074 0.18072763
0.078514494 -0.013136066 -0.0010350902 -0.042395175 0.25244504 -0.013800924 0.09014067 0.208493
-0.0074823485 0.14802004 -0.21663977 0.07550376 0.28510466 -0.014288467 -0.060021777 -0.053542484
0.08203204 0.13136895 0.19630522 -0.09237449 -0.11655485 -0.123913504 0.1554804 -0.053131506
0.12824245 -0.11012743 0.08606607 0.3234934 0.08666764 0.20784028 0.088584445 0.04570866
0.11614191 -0.122278385 0.124071755 0.2961713 0.048949905 0.09896254 -0.05842591 0.012269241
-0.062211752 -0.009380068 0.010514238 -0.38352177 0.17826943 -0.0840302 -0.08772773 0.22869506
